DL/models/iris/model_train_wbs.pth (torch, 4056 bytes, 5 tensors)

in_layer.weight f4 [10, 3]
00000000: 5d15 3f3d 04e2 af3e 021b 9f3e e000 f53e
00000010: d4ef e5be c8e8 ae3e ea79 10bf e04e c4bc
00000020: f093 dbbe 21d0 193f 09fd 02bf 8695 a73e
00000030: 2f69 813e a56d a7be 939b 7d3e c1e2 ee3e
00000040: deaa d23e 5522 f1be ca08 de3e ea38 dcbe
00000050: b00b ea3e 9b7f 763e 887a 873d 98ea 183d
00000060: 59da 083f 57fb ab3e b421 e0be 53a7 453e
00000070: 685c 373e 83f6 2b3e
0.046651233 0.34352124 0.31075293 0.4785223 -0.44909537 0.34161973 -0.56436026 -0.023963392
-0.42886305 0.60083205 -0.5116735 0.32731265 0.2527556 -0.3270084 0.24766378 0.46657375
0.41145986 -0.47096506 0.4336608 -0.43012172 0.45712042 0.24072115 0.06615168 0.0373331
0.5345817 0.33590195 -0.43775713 0.1930211 0.17906344 0.16793256

in_layer.bias f4 [10]
00000000: 58d6 423d 2385 90be 88cd d93e dffe 863e
00000010: a137 e0be e4fe c2bd 35b5 10be 6fc1 9c3e
00000020: 468e 4cbe e9fc e33e
0.047567695 -0.28226575 0.4253962 0.26366326 -0.4379244 -0.09521273 -0.14131625 0.30616328
-0.19976148 0.44528893

hd_layer.weight f4 [30, 10]
00000000: d4f8 9bbe d606 9fbe 76a9 52be 2091 0abd
00000010: f0f7 ee3c 54b0 c0bd 4ab4 403e 90a4 393d
00000020: 7813 5bbe 00e8 d33d df2e 703d bb0d 573e
00000030: 4a05 f0bd da11 ab3e 274e 783e 0a15 eebb
00000040: ace7 0e3e 96b4 d23b d061 023e 087e 7fbe
00000050: 644c 86be bb30 65be 7fca 96be ec44 223e
00000060: 1686 94be c27d 1a3e 7696 203e bef4 3ebe
00000070: c16c 9ebe de44 3ebe 0e27 33be 1c1b 883e
00000080: 3dc7 38be 3693 273e 6d21 763e 65aa 313e
00000090: b6b0 23be af97 d03d 8876 56be b053 8abe
000000a0: 439c 3abe 2347 90be 6829 063e 41aa 1bbe
000000b0: b2cb 013e f9d2 823e 14d1 eabd 00b6 76ba
000000c0: 381e 67bd c8c2 69be 2486 893d 676c 1abc
000000d0: 147a e4bd ff83 ae3e 7aa3 9f3e 83db af3e
000000e0: 38be ad3e 7077 88be e3e3 01bd 3287 8ebe
000000f0: 0b42 06be d992 88be 8812 323d 4899 b2bd
00000100: 50d4 853d 4874 09bd 32b3 8ebe 4661 80be
00000110: e849 57bd b4e8 c83d ec0d cabd a572 e33d
00000120: 1936 9d3e c3d9 fdbd 7b66 85be f3e3 36be
00000130: cd1b b73d 6c2e 4a3e ce04 583e ba79 183e
00000140: 1fbc 933c 8aaf 65bd 2073 903d 172f 913e
00000150: 0459 433e 5f4a ec3d 0a27 63bc 5a16 843e
00000160: 73e0 503d d339 6d3e 94f8 a4bd 1d76 173d
00000170: 3aa4 c8bd f8ad 7b3d e827 eb3d 4715 a7be
00000180: 4467 a03c ddf1 7b3d 363f 543e 10a4 4c3e
00000190: 0f97 063d 7272 653e 8067 74be c3ac 0e3e
000001a0: 20b3 7bbc bfb2 85be 39f6 f5bd b469 5cbe
000001b0: 611e 173d b1a2 55bd e020 5abd 2cb7 963d
000001c0: a244 60be 1bc3 9fbe 6fd1 9e3e 5273 a3bd
000001d0: b49a 8c3d 68cb 55bd 12a2 9cbe 7435 a1be
000001e0: 256c 03be a83e 5c3d a537 5ebe 5f02 9fbe
000001f0: 4aa6 92be 68c3 a4bd 8b32 9b3e ad45 3cbe
00000200: eef6 b3bd f064 5dbd a5d6 83be 62e6 8f3e
00000210: d082 8f3d b31d c4bc fc1c 183e ebc5 9cbe
00000220: 4d87 923e 28a8 9cbe 001d 80be 4e75 ddbd
00000230: 2a1b 853d 4379 02bd 1c29 85be da23 583e
00000240: 4b3d a0be cca5 843e 38b6 883d 9d9b 913e
00000250: f7ae 8f3d 11e9 9a3d 0071 1e3d e754 8e3e
00000260: eb4b 9d3e caac 56be 6e43 463e a0d8 31bc
00000270: d7c6 23be 60cc 08be d8d6 66be 40f1 11bd
00000280: b04d 503e 4513 e7bc 78d4 23be c87d 41bc
00000290: 10b8 7bbe ea04 b4bb 928f 383e c5a3 853e
000002a0: 5fbb 4b3d 4c6e 833d e176 673d a03d 08be
000002b0: 1800 6f3d 19f5 8d3e 1ad0 19be 69ff 34bd
000002c0: 8db1 89be 233a da3c eb19 ba3d 905c 5c3e
000002d0: ce74 47be f6c6 85be f8fa 443d 28fe 83be
000002e0: b613 183e ee07 473e c05e 05bc 5004 49bd
000002f0: 1b2a 81be 404f a3bd 4678 673d ae04 cebd
00000300: 6c3a f5bd 3dcc 09bc 5a68 5cbe 68bd 693e
00000310: 9f02 0b3e d558 143e 43a8 6c3d f9ed debd
00000320: d21e 62be 7bb6 a03e dc36 5fbe d0c2 3f3e
00000330: 06bb 09bb 2f20 1cbd a570 c93d d449 75be
00000340: 4bb4 ab3e ed1a 333d 4856 42be f5ff a03e
00000350: b0fb ef3d bdc4 9b3e 4c70 0a3e 2806 943e
00000360: 4f3e f03d 3369 ac3e 0ddc a23d 6ef2 863e
00000370: efc6 af3e f999 86be 00e7 d8ba de77 993e
00000380: 3776 cf3d d165 9e3e 5847 57bc 18a3 923e
00000390: 7a5b a03e 571f 2e3e 5fe9 c23b b504 7bbe
000003a0: 868c d1bd a363 aebd 25d4 77be a8c0 2e3e
000003b0: 73b1 13be bc11 803e 8b54 ed3d c3b4 c8bc
000003c0: 6bb3 1abe 5c6e 2c3e 1d3b 883e 5b5f 83be
000003d0: 600b e3bc 882c 1c3d daf2 453e 7660 a6bd
000003e0: 496f 87be 52d8 73be 9ab2 92be 7881 f0bd
000003f0: c819 78bd b614 9dbd 085d 1e3e 1277 89bd
-0.30463278 -0.31059903 -0.20572457 -0.03382981 0.02917096 -0.09408632 0.18818775 0.045322955
-0.21394145 0.10346985 0.05863845 0.21001332 -0.11719759 0.33412057 0.24248563 -0.0072656916
0.13955563 0.006430219 0.12732625 -0.24950421 -0.26230156 -0.2238187 -0.29451367 0.15846604
-0.2900855 0.15087035 0.15682396 -0.18648049 -0.30942348 -0.18580958 -0.17495367 0.26583183
-0.18044753 0.1636475 0.24036188 0.17350157 -0.15985379 0.10185181 -0.20943654 -0.27016973
-0.18223672 -0.28179273 0.13101733 -0.15201665 0.1267536 0.25551584 -0.1146566 -0.00094112754
-0.056425303 -0.2282821 0.067150384 -0.009425259 -0.11156097 0.3408508 0.3117941 0.34347162
0.33934188 -0.26653624 -0.03171147 -0.2783752 -0.13111131 -0.26674536 0.043474704 -0.08720642
0.06534636 -0.03355816 -0.2787109 -0.25074214 -0.052560717 0.098100096 -0.09865937 0.11105851
0.30705336 -0.123950504 -0.2605475 -0.17860393 0.089408495 0.19744271 0.21095583 0.14890185
0.018034039 -0.05607561 0.07053208 0.2835624 0.19076926 0.11537623 -0.013864288 0.25798303
0.0509953 0.2316659 -0.08055225 0.036977876 -0.09796949 0.061445206 0.11482221 -0.3263342
0.01958049 0.061509956 0.20727238 0.1998446 0.032858904 0.22406939 -0.23867607 0.13933091
-0.015362531 -0.26112935 -0.12009854 -0.21524698 0.036894206 -0.052157108 -0.05325401 0.07359156
-0.21901181 -0.3120354 0.3101916 -0.0798098 0.06865445 -0.052195936 -0.305924 -0.31486094
-0.12834223 0.05377069 -0.21700914 -0.31056497 -0.28642493 -0.08045083 0.30312 -0.18385954
-0.087873325 -0.05405134 -0.25749698 0.28105456 0.070073724 -0.023939943 0.14854807 -0.3061975
0.2861885 -0.30597043 -0.25022125 -0.1081339 0.06499322 -0.031853925 -0.26007926 0.21107426
-0.31296763 0.25907743 0.066753805 0.28439036 0.07015794 0.07563985 0.038681984 0.2779915
0.30721983 -0.20964351 0.1936166 -0.01085487 -0.1599382 -0.13359213 -0.22542894 -0.035630465
0.20342135 -0.02820743 -0.15999019 -0.011809774 -0.24581933 -0.00549375 0.18023518 0.2610151
0.049739238 0.06417522 0.056509856 -0.13304758 0.0583497 0.27726057 -0.1502079 -0.04418889
-0.26893273 0.02663905 0.09086975 0.21519685 -0.19478151 -0.26128358 0.048090905 -0.25779843
0.14851269 0.19436619 -0.008140266 -0.04907638 -0.25227436 -0.079741 0.056511186 -0.10059486
-0.11974034 -0.008410511 -0.21524182 0.22826159 0.13575219 0.14487012 0.057777654 -0.108852334
-0.2208207 0.31389222 -0.21798271 0.18726659 -0.0021016016 -0.03811663 0.09835938 -0.23953944
0.3353599 0.04372685 -0.18978226 0.3144528 0.117179275 0.30423537 0.135194 0.28910947
0.117306344 0.3367401 0.079521276 0.26356834 0.34331462 -0.26289347 -0.0016548336 0.29974264
0.101299696 0.30937055 -0.013139568 0.28640056 0.3131979 0.17004143 0.00594823 -0.24513514
-0.10231881 -0.08515098 -0.2420202 0.1706568 -0.1442316 0.2501353 0.11588391 -0.024500256
-0.15107505 0.16838974 0.266076 -0.25658688 -0.027715385 0.038128406 0.19330922 -0.08123867
-0.2645209 -0.23812988 -0.28651887 -0.11743444 -0.060571462 -0.07669966 0.15465176 -0.06712164

hd_layer.bias f4 [30]
00000000: 9bc9 85be 3c16 4a3e 701b a53d 8d83 44be
00000010: 4d0d 923e ea03 c83d 00fc 57bb c2cc 2c3e
00000020: 1f80 873e d0db 83be 23a7 0cbc 26c2 13be
00000030: afa4 44be ec9a 99bc ef16 93be c49d a83d
00000040: 2c91 2fbd fa8e 853e f140 12be 7cd7 973a
00000050: 0c20 a53d 81a0 9f3e 27a4 833e 7d2e 0bbd
00000060: 06fd 363e f8d0 70bd 9705 84be b6ff 383e
00000070: 4083 65bd 2ee0 303e
-0.26130375 0.19735044 0.08061874 -0.19190808 0.28525773 0.097663715 -0.00329566 0.16874984
0.26464936 -0.2575364 -0.00858477 -0.1442953 -0.19203447 -0.01875063 -0.28728434 0.082332164
-0.042863056 0.26085645 -0.14282586 0.0011584605 0.08062753 0.31177142 0.25711176 -0.03397988
0.17869958 -0.058793038 -0.25785515 0.18066296 -0.056033373 0.17273018

out_layer.weight f4 [1, 30]
00000000: d840 00bd 0b2c cd3d a447 ce3d 983b 17be
00000010: f8bd fdbc e945 973d d065 eebc ff1d 10ba
00000020: 2f14 f23d 4b8f 0bbe 63ce 273e eeae 0bbe
00000030: 54b0 5e3d 1f1f 59bd 8d14 03be 8c76 183d
00000040: 07e4 88bd 4515 a63d e07d bbbb 7a02 ecb9
00000050: 3a4f 073e a9bf f33d 8e59 063d d2af 023c
00000060: c0ab 2a3c 5f6c c2bd 5dd0 13be 9cec 45bd
00000070: 4089 c1bc 28e8 08be
-0.03131184 0.10018166 0.10072258 -0.14768827 -0.030974373 0.07386381 -0.029101282 -0.0005497634
0.11820256 -0.1362888 0.16387324 -0.13640949 0.05436738 -0.053008195 -0.12800808 0.03722243
-0.06684118 0.081095256 -0.0057217926 -0.00045015273 0.13213816 0.11901791 0.03280025 0.007976489
0.010416925 -0.094933264 -0.14434953 -0.04832135 -0.023625016 -0.1336981
