DL/models/lang/MCF/model_all.pth (torch, 9560 bytes, 8 tensors)

weight f4 [10, 26]
00000000: d901 bdbd e853 81bd 44b7 6ebd 5b85 07be
00000010: a145 d0bd 6cd4 a9bd c422 1bbd 800b eabb
00000020: 8662 e83d fc11 493d e626 fe3d d043 37bd
00000030: 1ee1 893d eb8d 0e3e c6d5 86bd 41b1 023e
00000040: 0e4f 823d ca5b c83d 0015 003d 40cc 053d
00000050: 2600 b13d e883 f1bc 4734 153e fc33 7e3d
00000060: d17e 343e c104 423e 0c8c bb3d 3c90 b13d
00000070: b8fa 143e e313 033f d3fe 2e3f f93f 6abe
00000080: 1259 07bf d5e3 f0be e857 22bb a4d0 5f3f
00000090: 8edc 903e 625d d43d dae4 993e 98de a4bd
000000a0: 8b13 90be 435b 7b3e 082d 3c3f de33 bb3e
000000b0: 05de ca3e 478a 133d 9f35 3f3f b736 943d
000000c0: 8b1f 2ebf a21e 0a3e 9a1e e8be b6ba 693e
000000d0: e90c fb3e 72e0 0d3f 67b5 1dbf 11f7 9a3e
000000e0: ac3c 69be 0d71 48be ba53 bf3e 1a57 243e
000000f0: 6e27 23bd 00f1 1d3f c619 413f b14d 81be
00000100: 8856 a13e 7307 9e3e 29c3 afbe f152 213d
00000110: 7f58 5fbf 8180 dcbd 4185 273d 0abd 02be
00000120: 6294 833e f77a d9be 5f25 893e 8dca 06bf
00000130: 303c 3e3e 446d b8bc c383 92be 59c8 7bbe
00000140: ab60 1a3f c624 7c3e a82b a13e f75d f23e
00000150: 5e9e a0be 21e3 373e 2689 9fbc 0e9a 8f3a
00000160: 3296 35bf 67b5 6d3e 87a1 2abe 2262 93bd
00000170: 357c f43e 447b 9ebd d300 a93d 838c 913e
00000180: 11bf 80bc 1098 5a3e bed2 31be f4b8 173f
00000190: 0dd7 8a3e f253 3a3e cdd7 95bc ebb8 833d
000001a0: 3685 893e a662 c03d bfc9 73bd 3ab5 f4be
000001b0: 7694 ebbe efc1 d7bd 1de9 373f 3aa7 183f
000001c0: f721 f3bd 5110 25bf e2ce 453e bab6 b3bd
000001d0: e01f 5c3c d4ea dc3d c32a c63e 4513 07be
000001e0: 1003 81bf 4b0a fdbe 3c5a 6cbe db71 763e
000001f0: 358f a7be e2c7 45be 1a66 733f 1719 58be
00000200: 958c 1a3f 4710 10be db33 bf3e 64ac 1c3e
00000210: b155 08bf d99a 08bf a83f 43bf 57b7 f0be
00000220: 1923 523f f846 343e 3ac4 2dbd b1cc b2be
00000230: 575e 3d3f 534f 9fbe cf4c 553a 9a09 083f
00000240: 47da 623d 99e1 4a3e af64 80bf 8001 a0be
00000250: ccf2 acbe fbcd 76be 2e9c b6be 1c12 44bf
00000260: 9975 4e3f 84a8 51be 657b 5d3f 0d24 64be
00000270: 08e3 04be 30da 083c e878 d7bc 0908 3fbe
00000280: 205d 4dbc 9681 30be ff0f 0fbe 303e e8bc
00000290: c5ef 213e 14c9 7a3d e277 cbbd e840 003d
000002a0: 2c2f 793d 7c60 643d 9a59 cc3d f1e8 11be
000002b0: 80f8 8a3b e42c 723d 62db 973d 4328 12be
000002c0: f428 12be 4041 bdbc 9b84 0ebe 2e36 26be
000002d0: 3463 7e3d 4a51 28be 6668 37be 5a18 81bd
000002e0: 88c4 8cbc 04b5 01be a4bb 603d 00ae 253b
000002f0: 30c2 acbc 6864 e6bc 00b5 3bba 86b2 b73d
00000300: 86a7 1cbe 5c6e 10be 385a 023d 11db 043e
00000310: d027 67bc d00c 24bc cf35 28be f809 a83c
00000320: 39f2 243e 3a5f 23be 88e0 473d 512b 0abe
00000330: 60fe 343c 5664 e33d 2831 6bbd b100 96bd
00000340: 1ba3 2cbf add5 d0be 0b6a 383f 3ce0 5a3e
00000350: 7f3f 0f3f 2b9a e63e afd9 39bf 18b5 80bd
00000360: 143c 6ebd 6963 043e 97e1 1cbf 17be 483e
00000370: 8f3e c9bd e0d4 ecbd 4e15 9a3e ec9a 0b3e
00000380: 0cc3 3b3f a23a f03e 8702 f33e 9e70 ac3e
00000390: bd20 893d a8fc 033f 1f4f b3be 5542 013f
000003a0: 63ed 15bf 759a 543e a0c9 b8be 7ce7 0abf
000003b0: 7388 d83e 3739 cd3d d9ad c33e dabe 2abc
000003c0: 9ba8 44be 7be8 49be 7435 02be 4d38 ecbe
000003d0: 50a0 58bf eec6 7b3e 51ab 12bd 5c1e 2a3d
000003e0: b866 4e3e 0b11 1e3e 2414 423f bc33 4d3d
000003f0: 64dd 1d3e 8007 e0bb 839d b83d 76b9 8e3e
-0.09228868 -0.06314832 -0.058280244 -0.13234465 -0.10169531 -0.082924694 -0.037874952 -0.007142484
0.11346917 0.049089417 0.12409763 -0.044742405 0.06732391 0.13921325 -0.06583743 0.1276293
0.06362735 0.097831324 0.031270027 0.03266549 0.086426064 -0.029481843 0.14570723 0.062061295
0.17626502 0.18947126 0.09157571 0.08670089 0.14548767 0.5120222 0.6835758 -0.22875966
-0.52870286 -0.47048822 -0.0024771634 0.87427735 0.2829327 0.10369374 0.30057412 -0.08050269
-0.2813991 0.24546532 0.7350621 0.3656301 0.39622512 0.036020543 0.74691194 0.072369985
-0.6801688 0.13488248 -0.45335847 0.22825131 0.49033287 0.554206 -0.61604923 0.30266622
-0.2277705 -0.19574375 0.37368566 0.16048852 -0.039832525 0.6169586 0.7542995 -0.25254586
0.3151133 0.30865058 -0.34328583 0.03938574 -0.8724441 -0.10766698 0.040898565 -0.12767425
0.25699145 -0.42476627 0.26786324 -0.5265282 0.18577647 -0.02251304 -0.2861615 -0.24588145
0.60303754 0.24623403 0.3147862 0.47337314 -0.31370825 0.17957737 -0.019474577 0.0010955946
-0.70932305 0.23213731 -0.1666318 -0.07196452 0.47751012 -0.07738355 0.0825211 0.28427514
-0.015716108 0.2134707 -0.17365548 0.5926659 0.27117196 0.18196085 -0.018291378 0.06431755
0.26859444 0.09393816 -0.059518572 -0.47794515 -0.46011704 -0.10535037 0.7184008 0.5963017
-0.11871713 -0.6447802 0.19317201 -0.08775087 0.013435334 0.107869774 0.387045 -0.13190944
-1.007906 -0.49421915 -0.23081297 0.2406687 -0.32726446 -0.1931453 0.9507767 -0.21103321
0.6037076 -0.1406871 0.3734425 0.15300137 -0.53255755 -0.5336128 -0.76269007 -0.47014877
0.82084805 0.17605197 -0.042423464 -0.34921792 0.73972076 -0.31115207 0.00081367505 0.5313965
0.055383947 0.19812621 -1.0030726 -0.31251144 -0.3377899 -0.24102013 -0.3566603 -0.7659013
0.8064819 -0.2047444 0.8651641 -0.22279377 -0.1297723 0.008352801 -0.02630277 -0.18655409
-0.01253441 -0.17236933 -0.13970946 -0.028349966 0.15814121 0.06122692 -0.09934975 0.0313119
0.060836002 0.055756077 0.09978028 -0.14249016 0.0042410493 0.059124842 0.07414891 -0.14273171
-0.14273435 -0.023102403 -0.13917772 -0.16231605 0.062106326 -0.1643726 -0.17910919 -0.06303473
-0.017183557 -0.12666708 0.054866448 0.0025280714 -0.02108869 -0.02812405 -0.0007160455 0.089695975
-0.1529828 -0.14104599 0.03182432 0.12974192 -0.014108613 -0.01001282 -0.16426776 0.020512566
0.16108026 -0.15954295 0.048798114 -0.13493086 0.011046976 0.11103122 -0.057419926 -0.073243506
-0.6743638 -0.40788022 0.7203681 0.21374601 0.5595626 0.45039496 -0.72597784 -0.06284541
-0.058162764 0.12928547 -0.6128172 0.19603764 -0.09826385 -0.1156404 0.3009438 0.13633317
0.7334449 0.46919733 0.47462866 0.3367967 0.066956975 0.515574 -0.35021302 0.5049184
-0.5856535 0.20762046 -0.36091328 -0.5425947 0.42291602 0.100206785 0.38218573 -0.010421479
-0.19204943 -0.1971759 -0.12715703 -0.46136704 -0.8461962 0.24587604 -0.03580791 0.04153286
0.20156372 0.15436189 0.7581198 0.050098166 0.15416485 -0.0068368316 0.09014418 0.2787587

bias f4 [10]
00000000: c0cf d4bc 6d58 bd3d c513 893e 3ad6 c73d
00000010: 8ce5 e73d 986e 533e 6ee2 cfbd 8d83 b8bd
00000020: bd48 1b3e dbd5 393d
-0.02597797 0.092453815 0.26772895 0.09757657 0.113230795 0.20647657 -0.1015061 -0.09009466
0.15164466 0.045369964

weight f4 [30, 10]
00000000: e567 8e3e 6bad 94bc 9cbf 803e e705 903e
00000010: 501d aabd 2051 613e 5c4b d1bd d8d8 1e3d
00000020: 417b 1e3e 8254 763e 04c4 ba3d bc35 4b3e
00000030: 7970 b63e cc6b dcbe 6cd5 a23c 4c60 ea3e
00000040: efd8 78be feef 8dbe 9fc1 29bf d506 9dba
00000050: 5a46 14be e0c1 05bc de0e 20be 5aac 723e
00000060: 73b9 973e 98ab 5dbd db13 943e 405f 74be
00000070: 638f 3abe aa96 583e c0b9 d23d 84cb 073f
00000080: 5f80 8f3e 2b3d e13e c610 f4be c4a3 1abf
00000090: e6cd 2b3e 2076 ee3c 640c 213f e32c e83d
000000a0: d8e2 263e dd54 88be 7c74 92be 32b2 9ebe
000000b0: 6620 f2bd f8a5 443d c057 9b3d d4f1 83be
000000c0: b039 0dbe f48b 7fbe 43a6 863e 0f62 033f
000000d0: 9976 d03e 5575 b7be aa11 173a 3eb5 7c3e
000000e0: 400a 7abe a82b 4fbd 0ee1 1bbf fd80 32bf
000000f0: d852 92be 0056 0cba ea3f 2a3e 69bd 11be
00000100: 7e42 233e 279a 11be 40d2 1fbd 5870 483d
00000110: 7045 bfbc eea1 c8bd dc23 f63d 8e67 d83e
00000120: b537 88be 4ae7 b93e c1b8 20bf 6ba6 34bf
00000130: 48e6 1a3d 28ce d63d 258a 753f d361 073f
00000140: dc5b 283e bb53 9e3e a8b9 81be d7ee 8abe
00000150: e09c 343d bb04 85be 4e73 7a3e 4398 a03e
00000160: b03c a3bd 2564 853e 9d32 85be 5a1b 883f
00000170: 35e8 55bd a026 f93c a41d b9be b5db 5a3e
00000180: 60b9 45be ac3d 123e 5d0d 6e3e 9272 f2bd
00000190: 66c7 523e def9 f3bd b805 073e 8361 a1be
000001a0: e0c3 e53c 42f9 06be 3644 62be 689f 93be
000001b0: 5830 63bd f45a c1bd 605d fdbd ac7c ca3d
000001c0: bb66 81be e60b 403e bc3a 283e 8018 e03d
000001d0: 985c e43d e050 803c 1af3 6c3e 6826 773d
000001e0: 62d8 783e b797 41bf e710 fdbd 38e7 37bd
000001f0: 2be5 a53e b5e9 f43e 06c7 15be 820b 4abe
00000200: 28e9 6fba ca05 e23d a20c 723e 40d5 293d
00000210: 98e0 063d 01c5 20be f82f 46bd f921 a13e
00000220: 1181 8abe 9ea1 523e ec7c d0bd 88d6 683d
00000230: c003 a8bc 1eb8 273f c41f d3be 02c0 80bc
00000240: b0d5 18be d672 35bf eb40 8bbe 687f 813d
00000250: c603 d73e db3d 363f 0f4a 8b3e e2bf 883d
00000260: 6342 d03d 2dbd 90be a999 7f3e fba5 283f
00000270: 1082 ae3d f0e8 b33d a29d e3bd ac0c bfbd
00000280: 7614 743e d9bb 113e 01d4 053f 6360 edbd
00000290: 674a 7d3e 9956 f43e 68ba 7e3d 589a 073d
000002a0: da45 69be b925 a0be b833 473d 1d58 783f
000002b0: 18ab 49be ff12 8f3e f367 4cbf 62a2 2dbf
000002c0: c0c1 8dbe 2ba7 823e 6400 ce3e 2360 223f
000002d0: 156a 803e eaf6 86be 07b7 943e e0bf 6fbc
000002e0: 85ec 9abe 46f7 d2bd f9d4 9ebe 28b7 23bd
000002f0: 924e 6cbe 5e87 45be 7b2b 933e eee0 05bf
00000300: 7171 d13d ecad 8e3e a261 603f 5af6 3d3f
00000310: ce13 7dbe 80b7 74bd 7449 04be eae1 dabe
00000320: 3e32 8bbd 34c1 d53e b56b ccbe c885 de3e
00000330: 3f49 f8be dcb3 ddbe 7064 023d 002e 94be
00000340: 53d6 2f3f ecbf b13e 7242 4d3e b012 a83e
00000350: 897a 9b3c 829a e13d d670 5dbe 1620 14be
00000360: 24e2 0a3e ba90 9bbe e97f a73e 2b3e 18bd
00000370: 804c 1dbc bc44 443f 5c82 ca3d f076 12be
00000380: 182a 843d 6290 763e 4083 8f3c 419b 2dbe
00000390: c6e8 c33e 3a23 bdbe 8849 083e a40a f53d
000003a0: 8a9d 8dbd dbb7 953e d400 863d f047 313e
000003b0: 003f 1c3b 68b5 c63d e3db 903e b0a1 82be
000003c0: 887f 2fbd 6807 1bbe a214 fbbd 5dba 8ebe
000003d0: 6cb4 e73d d0c8 efbd 44f8 8fbd 4039 eabb
000003e0: 6855 d63d 58de c83d cc87 87bd 6a66 173f
000003f0: e89e 313e 3fdb cf3e ac37 aabb cdd4 973d
0.2781364 -0.018149098 0.25146186 0.28129503 -0.08306372 0.22003603 -0.10219452 0.038781017
0.15476705 0.24055675 0.09119418 0.19844717 0.35632685 -0.43050992 0.019877158 0.45776594
-0.24301504 -0.27722162 -0.6631107 -0.0011980186 -0.14479962 -0.008163899 -0.15630671 0.2369856
0.29633674 -0.054118723 0.289214 -0.2386446 -0.1821876 0.21151224 0.10289335 0.53044915
0.28027627 0.4399198 -0.47669047 -0.60406137 0.16777763 0.02910906 0.6290953 0.113366865
0.16297472 -0.26627246 -0.28604496 -0.30995327 -0.11822586 0.048009843 0.07585096 -0.25770438
-0.13791537 -0.24955732 0.26298723 0.513215 0.40715483 -0.35831705 0.0005762825 0.24678513
-0.24417973 -0.050578743 -0.6089028 -0.6972807 -0.2857883 -0.0005353391 0.16625944 -0.1423241
0.15943334 -0.1421896 -0.03901887 0.048935264 -0.02334854 -0.09796511 0.120185584 0.42266506
-0.26605 0.36309272 -0.6278191 -0.70566434 0.03781727 0.1048854 0.95913917 0.5288364
0.16441292 0.30923256 -0.25336957 -0.27135345 0.04409492 -0.25980172 0.24458048 0.31366166
-0.079705596 0.26052967 -0.26015177 1.0633347 -0.052223403 0.030413926 -0.36155427 0.21372874
-0.19308996 0.14281338 0.23247285 -0.11838259 0.20583877 -0.11912893 0.13185775 -0.31519708
0.028047502 -0.13181022 -0.22096333 -0.28832555 -0.055466026 -0.09441176 -0.123713255 0.098870605
-0.2527369 0.18754539 0.16428655 0.10942173 0.11150473 0.015663564 0.23139611 0.06033936
0.24301293 -0.75622123 -0.123567395 -0.04489824 0.32401404 0.47834554 -0.14626703 -0.19730952
-0.00091518695 0.110362604 0.23637632 0.041463137 0.032929033 -0.15700151 -0.04838559 0.31471232
-0.27051595 0.20569465 -0.10180077 0.056845218 -0.0205096 0.65515316 -0.41235173 -0.015716556
-0.14925265 -0.7087835 -0.27197966 0.06323129 0.41995066 0.71188134 0.2720494 0.06677224
0.10168912 -0.2826933 0.2496096 0.65878266 0.08520901 0.08784664 -0.111140504 -0.09328589
0.2383593 0.14231814 0.5227662 -0.1159065 0.24735413 0.4772232 0.06218949 0.033106178
-0.22780553 -0.3127878 0.048633307 0.9700945 -0.19694173 0.2794418 -0.79846114 -0.678259
-0.27686882 0.25518164 0.40234673 0.63427943 0.25080934 -0.26360255 0.2904589 -0.014633149
-0.30258575 -0.1030107 -0.3102186 -0.039969593 -0.23076847 -0.1928992 0.2874411 -0.5229634
0.10226715 0.27867067 0.87648976 0.7420403 -0.24714586 -0.05974531 -0.12918645 -0.42750484
-0.06796692 0.41748965 -0.39925924 0.43461442 -0.48493382 -0.43301284 0.031834066 -0.28941345
0.6868641 0.34716737 0.20044878 0.32826757 0.018979328 0.11015798 -0.21625075 -0.14465365
0.13562828 -0.30383855 0.32714775 -0.037168663 -0.009600759 0.7666738 0.09888145 -0.14303184
0.06453341 0.24078515 0.01751864 -0.16953756 0.3826353 -0.36940938 0.133093 0.1196492
-0.06914814 0.29241833 0.06543127 0.17312598 0.0023841262 0.09702569 0.2829276 -0.25513983
-0.042846233 -0.15139544 -0.12259795 -0.2787656 0.113137096 -0.11708224 -0.07029775 -0.007147938
0.10465509 0.09808034 -0.06617698 0.59140646 0.17345774 0.4059696 -0.005194625 0.074136354

bias f4 [30]
00000000: 2e01 7bbe 3004 ae3e e229 1bbe 59ad cf3d
00000010: 5b8e 10be 40fe 403e ad69 4cbe 71a2 983e
00000020: 4ca4 27be 8359 9f3e fef0 f3bd 12c5 82be
00000030: 751f c83e 95ee 14be 53e7 913e 80e6 bb3e
00000040: bb96 f83e 50fa ae3e 3ed5 83be 72c3 303e
00000050: 7e39 4c3e 613c 08be a706 e13e 3ecd 85be
00000060: 6fad 96be 3203 ee3e 960c d93e 8311 273e
00000070: 6320 303e f830 5abd
-0.24512169 0.3398757 -0.15152696 0.10140485 -0.14116804 0.18846989 -0.19962187 0.29811433
-0.16371268 0.3112298 -0.119112 -0.25540978 0.390865 -0.14544137 0.284968 0.36699295
0.48552498 0.34175348 -0.25748628 0.17262056 0.19943807 -0.13304283 0.43950388 -0.2613315
-0.29429194 0.46486813 0.42392415 0.16315274 0.17199855 -0.053269356

weight f4 [20, 30]
00000000: 51ef 963d 23e3 e73e 8842 97bc 563a 5abe
00000010: 884f 1ebe 8ade ed3e 4836 063e 305f f2be
00000020: 4ff4 8abd b97a 2c3e dd7b 29be 9b91 a7bd
00000030: 342c a6ba 5430 bb3d f955 96be 34ac 5f3e
00000040: 691e c63e 5f20 023d 923c 2c3e ab54 dc3e
00000050: 0b88 8dbe e0b4 cfbd e5f2 033e 6a02 2bbe
00000060: c022 60bc af7c 013e f592 8a3e 5b14 f33b
00000070: d187 aabe 30e4 443d eab4 1b3e 64a0 30bd
00000080: 20b3 69bd 2163 3ebe 0464 e8bd 3af9 41be
00000090: 205e 66bc 5492 bd3c 00c9 c8ba 263f fd3c
000000a0: 7082 863d 8425 ccbd 9154 813e 4005 833b
000000b0: bcea 03be 581f 8c3e bbbd 453e e5b6 0dbe
000000c0: 14a8 2bbd 1b30 0a3f d343 9cbd 24e1 69be
000000d0: 9e88 ef3a b08c c43d 763c 023e 849f 733e
000000e0: 9cc3 473d 1860 6cbe 898a 8bbe 407a 873d
000000f0: 0555 2fbe 8346 31be 8882 b53c 5882 d53d
00000100: a06c 613d c09b 9d3d d001 403d 943b f93d
00000110: 40c3 193c a8f1 ebbc 040e 1a3e 88d4 353e
00000120: 1ba0 b4bd 1cfb c83d e88c ce3d a074 9b3b
00000130: 94ca b8bd 28c0 debc c0e4 d43d 2929 d4bd
00000140: 103b ecbc 99df 31be 0479 9c3d a05b f63d
00000150: c8ab 943c 8414 33be 9866 823c 9c52 69bd
00000160: d04b ca3d 1854 cbbd ad00 703d b360 5abd
00000170: 76ec 9cbd f269 ec3e 20df bdbc e3e6 75be
00000180: c412 2cbd 2764 623e 5894 443d 9c28 213e
00000190: dc81 d73d 61a3 9abd 54ce a1bc 58bd b8bc
000001a0: aa83 d43e 8ba8 82bd eefe 7dbc 057a b83e
000001b0: c8de 1fbd cd28 2abf e667 dc3e dbd2 9e3e
000001c0: 032c 3a3e 5cd7 26bd 8ca5 6a3d f96a 613e
000001d0: 2a8d 503c a904 023f aec9 903e befd acbd
000001e0: 93dd 2b3e 43a4 12be 305c 92bc 7393 ab3e
000001f0: 38ce de3d 4402 23bb 8c95 1ebe 14e0 113f
00000200: 205d 4e3c 6ad6 8f3e 9865 123e 60ce ff3d
00000210: 0f40 14be 44da a03d ca80 e23e e7a6 f83d
00000220: 76f5 003d fd7b c53e b83a 1c3e 6981 0fbf
00000230: 9545 c33e 30df 39bd 059e 0abd 30bf 6abc
00000240: f8f4 d3bc 2dfa 8e3e b28e 793d 82e8 1e3f
00000250: a9cf 0d3f a329 c5bd 3daf 0b3e b2b2 84bc
00000260: 2fcc 1abe 857b cdbd e0e3 73bd 378f 593d
00000270: faad 053e b27e 733e 8ca4 ab3d 3c50 2b3e
00000280: d8a3 11be 884b 63bd e2aa 4fbe b855 49bd
00000290: a606 ee3c 0806 993d f0c2 77bd 03e9 5c3e
000002a0: 2583 a6bd f6a3 3dbf 48aa 233e 7328 953d
000002b0: 1e52 e8bc 12b7 1abe 2cce 303d de66 f53d
000002c0: 2d75 54be 1356 b63d f1d2 873e 501c 913c
000002d0: 8486 a23d b6e9 313e 64a4 1cbd e55a c73e
000002e0: 6ea3 043e d0fd af3e 383c 013d f039 083e
000002f0: da27 29be ddcc 2d3e 9048 493c 3c70 1a3d
00000300: 34e2 64bd 08a0 b5bd 6cbe ffbc 2487 e1bd
00000310: 5e5a 323e 3be5 403e e00d 053e 3404 f1be
00000320: 5572 17be 3b34 253d 2260 403e 8c26 6a3d
00000330: c66e 7cbd 61df 8b3d a70c 503e 4279 8a3e
00000340: 960e 2a3e 78cd 063d 1449 c93d 9e94 833d
00000350: bc69 ce3d a407 f9bd b6d0 22be 60bf f8bd
00000360: 14b7 5a3d 24b3 36be 5f69 1abe d606 823d
00000370: 8398 cbbd 1ca7 983d b428 6f3d a448 06be
00000380: da2f 003e 78dd 16bd e849 f7bd 7b74 e4bd
00000390: a498 da3d 00c5 f0ba 3c07 443d 340f cc3d
000003a0: d0c0 33be 4cd0 973d 8089 3a3e b919 eabd
000003b0: f8a5 1f3e 22b4 1d3e c07a 323b 9276 39be
000003c0: 32ae 41bd eac6 d63e cc2a 943d 138e 21be
000003d0: 0028 13ba b63e af3e b292 003e 2795 6dbe
000003e0: 4ebd 0dbe 8cbe 353e 5b73 33be b8f8 e4bd
000003f0: 9303 c23e cb56 03be 386f 44be cb24 a53e
0.07369865 0.4529048 -0.018464342 -0.21311316 -0.15460026 0.46458846 0.13106644 -0.47338247
-0.067848794 0.1684369 -0.16551156 -0.08182069 -0.0012677968 0.09140077 -0.29362467 0.21843034
0.38695076 0.031769153 0.1681998 0.43033347 -0.27642855 -0.10141921 0.12885626 -0.1670014
-0.01368016 0.1264522 0.27065244 0.007418198 -0.33306745 0.04806918 0.15205732 -0.04312171
-0.057055593 -0.18592502 -0.113472015 -0.18942729 -0.014060527 0.023141064 -0.0015318692 0.0309139
0.06567848 -0.09968093 0.25259832 0.0039984286 -0.12882513 0.27367663 0.19310658 -0.138393
-0.04190834 0.53979653 -0.07630124 -0.2283979 0.0018274968 0.095971465 0.12718377 0.23791319
0.048770532 -0.23083532 -0.2725413 0.06615114 -0.17122276 -0.17312054 0.022156969 0.10425252
0.055035233 0.076957226 0.04687673 0.12169567 0.00938493 -0.028801754 0.15044409 0.17756855
-0.088196 0.0981352 0.100854695 0.0047441274 -0.09023014 -0.027191237 0.10395193 -0.10359413
-0.028836757 -0.17370452 0.076402694 0.12029195 0.018148318 -0.17488295 0.015918061 -0.056963548
0.09877741 -0.09928149 0.058594394 -0.053314876 -0.07662289 0.4617458 -0.023177683 -0.24013858
-0.042010084 0.22108518 0.047993034 0.15738147 0.105228156 -0.07550693 -0.019751705 -0.022551224
0.41506702 -0.06379803 -0.0155026745 0.36030594 -0.03903082 -0.6646851 0.43048018 0.31020245
0.18180852 -0.040732726 0.057286784 0.22013463 0.012728969 0.5078836 0.2827887 -0.08446835
0.16783743 -0.14320473 -0.017866224 0.33510932 0.10879177 -0.0024873177 -0.15486735 0.5698254
0.012595445 0.28093272 0.14296567 0.12490535 -0.14477561 0.07854131 0.44238883 0.12141209
0.03148409 0.38571158 0.15256774 -0.5605684 0.38139024 -0.045378864 -0.033842105 -0.014327809
-0.025873646 0.27925244 0.0609271 0.6207353 0.5539499 -0.09627082 0.13641067 -0.01619849
-0.15116952 -0.10033325 -0.05954349 0.053115096 0.13054648 0.23778799 0.08380994 0.16729826
-0.14222658 -0.055491954 -0.2028003 -0.049154013 0.029055905 0.074718535 -0.06048864 0.21573262
-0.081304826 -0.7407831 0.15982926 0.07283106 -0.028359469 -0.15108898 0.04316537 0.11982511
-0.20747824 0.08903136 0.26528123 0.017713696 0.07935813 0.1737431 -0.038242713 0.38936535
0.12952968 0.3437333 0.03155157 0.13303351 -0.16519108 0.1697268 0.012285367 0.03770469
-0.055879787 -0.08868414 -0.03121873 -0.11012104 0.17417285 0.18837444 0.12993574 -0.4707352
-0.14789708 0.040333014 0.18786672 0.057165667 -0.06162908 0.068297155 0.20317326 0.27045637
0.16607127 0.032910794 0.09828392 0.06424831 0.10078761 -0.121596605 -0.1589993 -0.12145877
0.053397253 -0.17841774 -0.15079258 0.0634896 -0.09941199 0.074537486 0.058388427 -0.13113648
0.12518254 -0.036832303 -0.120746434 -0.111550294 0.10673645 -0.0018369257 0.04785846 0.09963837
-0.17554021 0.07412776 0.18216515 -0.114306875 0.15590656 0.15400746 0.002723381 -0.18111637
-0.047285266 0.41948634 0.07234725 -0.15776853 -0.00056135654 0.34227532 0.1255596 -0.23201428
-0.13841745 0.17748469 -0.17524473 -0.11180252 0.37893352 -0.12826078 -0.19183052 0.32254633

bias f4 [20]
00000000: 4fa1 d53d 951f 3e3e 61b2 eebd d01c 143e
00000010: a15f aa3d c244 a73d cd79 023e 00a7 06be
00000020: 2be9 5d3e 7d37 413d fa2d 293e 240c f93d
00000030: 1929 033e 9816 d83d c83a 613e cf2f bebd
00000040: 2689 3b3e 44bb 16be ea53 033e 9c3b 723e
0.10431158 0.18566735 -0.11655117 0.14464116 0.08319021 0.081674114 0.12741776 -0.13149643
0.21670978 0.04717206 0.16521445 0.12160519 0.12808646 0.105511844 0.2199508 -0.092864625
0.18314037 -0.14719874 0.1282498 0.23655552

weight f4 [4, 20]
00000000: 351f 00bf 34a2 d53d e46c 883d 06e2 893d
00000010: 7d53 6fbd 5222 36be 5e37 a33c e746 41be
00000020: 0883 623d d53a 9ebd 2c8f 053e 5f29 b8be
00000030: 52f8 b43d 9456 983e 2666 fbbe 84cb 613e
00000040: 71b6 1abe bcae 12bd 6e02 233e f277 513d
00000050: 89fc 5bbf a932 d8be 0794 47be 56bb a63e
00000060: 5a0b af3d 927d 953e 9915 adbc 003a 4f3d
00000070: 3151 aebe e652 1fbd 610a 523d ab16 1bbf
00000080: 4cc3 b53e 08b2 b4bc 2772 eabe 942a 2a3e
00000090: bb59 37bf 7e7d 1d3e ec50 753e 423b 46be
000000a0: 4ecd ac3e d8e1 58be ae38 2a3e 8aea 8ebd
000000b0: a476 63be d7b9 e9bd a917 863e a8f7 f03d
000000c0: a094 2f3e cfa6 873e 6c3e 04bd eb43 493e
000000d0: f990 16bf a2c5 8d3b 43cc 663e 18b1 103e
000000e0: 6e6d 753e cfe5 36be 84ec 2bbe 9f98 2b3e
000000f0: 80b7 eb3e 952d ce3e ea65 54be b47a b3be
00000100: 7c2b 2bbf 98b2 3cbe 3477 acbe f22e edbd
00000110: fc4f da3e d0a7 c8be 0eed e9be d3af 023f
00000120: d98b 04bf 8855 2dbe c4e1 d03e e0d8 27be
00000130: 48f2 813e 2c96 443e e10a 12bf 30ae 12be
-0.5004762 0.104313284 0.06661394 0.06732564 -0.05842923 -0.1778653 0.019923862 -0.18874703
0.055300742 -0.07726065 0.13042897 -0.35969064 0.08836426 0.29753554 -0.4910137 0.22050291
-0.15108658 -0.03581117 0.15918896 0.05113978 -0.85932213 -0.4222615 -0.19490062 0.325648
0.08547087 0.29197365 -0.021128463 0.050592422 -0.3404632 -0.038897417 0.05127943 -0.60581464
0.35500562 -0.022057548 -0.45790216 0.16617805 -0.7162129 0.15379903 0.2395665 -0.19358543
0.33750385 -0.21179903 0.16623184 -0.069783285 -0.22213227 -0.11412399 0.26189926 0.11765987
0.1714654 0.26494452 -0.032286093 0.19654815 -0.5881496 0.004326538 0.22538857 0.14130056
0.23967525 -0.17861103 -0.16789442 0.16757439 0.46038437 0.4026915 -0.20742002 -0.35054553
-0.66863227 -0.18427503 -0.33684695 -0.1158122 0.42639148 -0.3919053 -0.4568867 0.51049536
-0.5177589 -0.16927159 0.40797246 -0.16391325 0.25380158 0.19197911 -0.5704785 -0.1432426

bias f4 [4]
00000000: d579 043c 5739 63bd 2658 35be 26b0 1abe
0.008085688 -0.055474605 -0.17709407 -0.15106258
