DL/models/pug/model_all.pth (torch, 9300 bytes, 10 tensors)

weight f4 [14, 7]
0.056353927 0.3316234 -0.27588943 -0.021674842 0.0016832352 0.24224493 -0.07296488 -0.5017125
-0.07160883 -0.25301012 -0.49487364 -0.29442573 -0.078434005 -0.7471269 -0.7376046 0.28274179
-0.1654859 -0.08274845 -0.023095371 0.2685858 -0.6226313 -111.21238 45.9357 -0.35751814
-2.9293232 -2.2454295 124.1775 2.0142112 -8.841588 2.8281913 -0.0052041635 -0.124427676
0.024649072 -5.0073733 -0.88644725 0.014302102 -0.27075633 -0.027227916 -0.04959293 -0.48037514
-0.19896747 -0.3500352 -0.07514565 -0.08280495 -0.015312822 -0.14500187 -0.5271646 0.31027767
-0.24715157 0.3407788 0.22901073 -0.24737671 -0.31511998 -0.05424577 -0.31944788 -0.31227943
-0.061775852 -0.07816486 -0.010595561 -0.5494574 0.09535745 -0.17047969 -0.33865565 -0.55061895
0.112233296 -0.055063665 -0.31287184 -0.53958213 0.20907664 -0.18641889 -0.410224 -0.123577915
-0.00081631343 -0.1057597 -0.03989159 0.15007372 -0.12410783 0.017448446 -0.16689326 -0.5331967
-0.3303988 0.03674292 -1.0293717 -0.17407094 -0.37995952 -0.28103647 -0.45603064 -0.038464148
-0.3947275 -0.046825215 -0.16898365 33.293377 -15.915663 -0.006745004 0.005302714 -0.0023246782
24.10165 1.3424976
00000000: 60d3 663d 8bca a93e 6141 8dbe 708f b1bc
00000010: 00a0 dc3a 0e0f 783e 9c6e 95bd 3b70 00bf
00000020: a6a7 92bd 8b8a 81be 1460 fdbe f8be 96be
00000030: 02a2 a0bd b543 3fbf a8d3 3cbf 88c3 903e
00000040: 2375 29be 0578 a9bd 8132 bdbc 1484 893e
00000050: c464 1fbf bd6c dec2 28be 3742 9e0c b7be
00000060: 087a 3bc0 1eb5 0fc0 e15a f842 d6e8 0040
00000070: 2577 0dc1 1601 3540 b087 aabb f0d3 febd
00000080: daec c93c 673c a0c0 35ee 62bf 5d53 6a3c
00000090: 93a0 8abe 140d dfbc f521 4bbd bbf3 f5be
000000a0: 21be 4bbe d037 b3be f6e5 99bd a495 a9bd
000000b0: a1e2 7abc 5f7b 14be 42f4 06bf b7dc 9e3e
000000c0: 4d15 7dbe 8f7a ae3e ca81 6a3e 5250 7dbe
000000d0: 6857 a1be d030 5ebd ac8e a3be 17e3 9fbe
000000e0: ad08 7dbd e614 a0bd 0199 2dbc 3da9 0cbf
000000f0: c44a c33d 3a92 2ebe 4664 adbe 5df5 0cbf
00000100: 92da e53d 708a 61bd bd30 a0be 0e22 0abf
00000110: 3018 563e 98e4 3ebe e108 d2be 6b16 fdbd
00000120: defd 55ba 8b98 d8bd 5d65 23bd edac 193e
00000130: 3f2c febd 0bf0 8e3c 11e6 2abe 947f 08bf
00000140: 082a a9be be7f 163d 74c2 83bf a73f 32be
00000150: 0e8a c2be 03e4 8fbe d97c e9be 958c 1dbd
00000160: b919 cabe cccb 3fbd 0d0a 2dbe 6b2c 0542
00000170: 8ea6 7ec1 3205 ddbb 64c2 ad3b a159 18bb
00000180: 2ed0 c041 f6d6 ab3f

bias f4 [14]
-0.17789797 -0.15452412 -2.8530977 -8.22386 4.61035 -2.133515 -2.1483533 -0.16697186
-0.2329924 -1.856879 0.1790237 1.034972 -0.4085016 -158.97446
00000000: e32a 36be 923b 1ebe 2799 36c0 ee94 03c1
00000010: fd87 9340 828b 08c0 9f7e 09c0 acfa 2abe
00000020: 8f95 6ebe 36ae edbf fd51 373e f679 843f
00000030: 1f27 d1be 76f9 1ec3

weight f4 [28, 14]
-0.010582358 -0.14254387 -0.114281386 -0.82569087 -0.26260042 0.20184356 -0.10366038 -0.13516812
0.25777873 0.11899261 0.22006056 -0.24947141 0.22429083 -0.7713478 0.25788704 0.08220851
-0.13404348 -0.5241168 -0.30772114 -0.058958944 0.0007872672 0.13403276 -0.12633277 -0.22885329
0.05072585 -0.010865233 0.04167059 -0.40585992 -0.079987615 -0.13969295 -0.0012416359 -0.30607557
-0.25624558 -0.070339166 -0.06348866 -0.24885787 -0.24189515 -0.030738492 0.104058765 0.15152006
-0.042740423 -0.25105456 0.26334724 -0.19632955 -0.014383161 -0.61487347 -0.17632699 -0.25249198
-0.34280097 -0.0658676 1.0037949 -0.026184611 -0.17201032 0.09753727 0.1868162 -0.47733438
0.20055044 0.15901673 -0.052232742 0.38171917 -0.068317294 0.09088148 0.31028026 0.01199308
0.20160066 0.022193521 0.15130363 0.2294552 0.32337222 -0.6989839 -0.14825249 -0.19122896
-0.2953024 -0.2680249 -0.14044626 -0.24227469 0.18955778 0.0062750876 0.0029910093 -0.11528767
-0.2016504 -0.1305401 0.10582445 -0.088602275 -0.15220937 -0.011384077 0.11475464 -0.4651863
-0.0018775626 0.08691139 0.13625732 -0.24488868 0.16540606 0.14082746 0.30406415 -0.30116513
-0.02834745 -0.55124325 0.116360456 0.28657886 -0.017271195 -0.19913873 -0.095857725 0.26692483
0.0028345783 0.06964183 0.039453045 0.0057861377 0.057387415 -0.16125476 0.09463186 -0.27207854
0.16615245 -0.09172982 -0.5123308 0.8512646 -0.27105463 -0.21068212 -0.07065024 -0.16549093
-0.031237913 -0.0040652286 -0.22785841 0.34984705 0.38410205 -1.1870923 -0.14453459 0.14269063
-0.3620957 -0.6569174 -0.33637506 0.15764405 -0.35587028 0.17625529 -0.21382397 0.013699381
0.096182406 0.042013176 0.07877797 -0.14902125 0.21866316 0.085476995 -0.29819158 -0.36926845
-0.019539546 0.04448618 -0.1840607 0.06934759 0.8178532 0.112830155 0.011530161 -0.1723079
0.043899074 -0.19689 0.21272558 -0.21197154 -0.14861669 -0.35771552 -0.28839174 -0.037693657
0.13435486 0.23439422 0.054927073 0.04704258 0.1942277 0.26674482 -0.03767322 -0.2262029
-0.07025647 0.22852272 -0.31788695 -0.5458614 -0.31014696 -0.31128594 -0.009353099 0.17827976
0.13785702 0.09584166 -0.07283828 0.65065074 0.005959125 -0.37708566 0.094198465 -0.116981395
-0.033205934 -0.33816853 -0.10613793 -0.060864363 0.010768447 0.11968669 0.16530557 -0.32204327
-0.048312556 -0.23496993 -0.113915 -0.17040293 0.25577804 -0.052092344 -0.19048418 -0.40370044
-0.27748847 -0.01789965 0.16382165 0.23659179 -0.16851546 -0.034071695 0.02945008 0.07646697
0.09542782 -0.27225065 0.193539 -0.12896787 -0.36224994 -0.2934551 -0.30811775 -0.040359173
-0.2043259 0.035481334 0.7031392 -0.043693792 0.1866802 0.018915521 -0.16769166 -0.60419405
0.02302301 0.1375091 -0.17161928 -0.27742395 -0.0012612675 -0.0077355313 0.015457827 0.2335507
-0.08571718 -0.39236414 0.22138213 -0.30093703 0.06520607 -0.16910324 -0.0074596405 -0.14542498
-0.20935036 -0.24073651 -0.27420095 -0.11702698 0.10010536 0.03741482 -0.18386868 -0.16246237
0.1799468 -0.14062256 0.07008966 -0.6578572 -0.19207993 0.11677186 -0.3543477 -0.07427216
00000000: a061 2dbc 05f7 11be 5c0c eabd 7a60 53bf
00000010: 9073 86be 14b0 4e3e e54b d4bd 8369 0abe
00000020: 93fb 833e 66b2 f33d 8e57 613e 6f75 7fbe
00000030: 7fac 653e 0d77 45bf c509 843e ef5c a83d
00000040: b242 09be 852c 06bf a08d 9dbe ef7e 71bd
00000050: 9c60 4e3a e23f 093e 615d 01be 8458 6abe
00000060: e9c5 4f3d 1704 32bc c8ae 2a3d dfcc cfbe
00000070: 8cd0 a3bd ab0b 0fbe 63be a2ba f0b5 9cbe
00000080: 9f32 83be fb0d 90bd 5806 82bd 99d4 7ebe
00000090: 5db3 77be 4acf fbbc c31c d53d 1328 1b3e
000000a0: 9510 2fbd 398a 80be 73d5 863e 9d0a 49be
000000b0: 5aa7 6bbc 5968 1dbf 108f 34be a146 81be
000000c0: 9c83 afbe 98e5 86bd 5a7c 803f 1c81 d6bc
000000d0: 7923 30be 9fc1 c73d bf4c 3f3e 2c65 f4be
000000e0: 185d 4d3e 48d5 223e 00f2 55bd b270 c33e
000000f0: f0e9 8bbd 1220 ba3d 0edd 9e3e a07e 443c
00000100: 6770 4e3e 30cf b53c 57ef 1a3e 4ef6 6a3e
00000110: 0b91 a53e 9cf0 32bf 80cf 17be 86d1 43be
00000120: e031 97be 8f3a 89be 25d1 0fbe db16 78be
00000130: 6f1b 423e 409f cd3b cf04 443b f11b ecbd
00000140: 717d 4ebe 4eac 05be 7dba d83d 1c75 b5bd
00000150: c6dc 1bbe 4884 3abc 7b04 eb3d e62c eebe
00000160: 8c18 f6ba 99fe b13d 0a87 0b3e 19c4 7abe
00000170: 3560 293e 1335 103e 4cae 9b3e 5132 9abe
00000180: e938 e8bc 471e 0dbf 644e ee3d 77ba 923e
00000190: 527c 8dbc 06eb 4bbe 0e51 c4bd 5faa 883e
000001a0: 55c4 393b 60a0 8e3d 8499 213d a499 bd3b
000001b0: 110f 6b3d f81f 25be 59ce c13d e14d 8bbe
000001c0: de23 2a3e d8dc bbbd 1c28 03bf 7aec 593f
000001d0: acc7 8abe 0ebd 57be 13b1 90bd 7476 29be
000001e0: a7e6 ffbc 9c35 85bb b753 69be 271f b33e
000001f0: 06a9 c43e a4f2 97bf e000 14be 7e1d 123e
00000200: 9c64 b9be bd2b 28bf 5a39 acbe 716d 213e
00000210: a134 b6be 447c 343e acf4 5abe 5e73 603c
00000220: 48fb c43d 0216 2c3d 5856 a13d 0799 18be
00000230: 3ce9 5f3e 900e af3d 91ac 98be c110 bdbe
00000240: 6611 a0bc 2437 363d 687a 3cbe 1c06 8e3d
00000250: d45e 513f 7f13 e73d 00e9 3c3c 7b71 30be
00000260: 84cf 333d 889d 49be bcd4 593e 110f 59be
00000270: f92e 18be 7d26 b7be 15a8 93be aa64 1abd
00000280: 5294 093e 0a05 703e 36fb 603d b8af 403d
00000290: a0e3 463e c792 883e 3c4f 1abd bca1 67be
000002a0: a0e2 8fbd dc01 6a3e 14c2 a2be 93bd 0bbf
000002b0: 95cb 9ebe df60 9fbe be3d 19bc f88e 363e
000002c0: 642a 0d3e a248 c43d 3c2c 95bd 0c91 263f
000002d0: c344 c33b 5f11 c1be 20eb c03d f193 efbd
000002e0: f202 08bd 6d24 adbe d85e d9bd e94c 79bd
000002f0: 246e 303c 4c1e f53d dd45 293e dbe2 a4be
00000300: 63e3 45bd f59b 70be 444c e9bd 1b7e 2ebe
00000310: 57f5 823e c85e 55bd 490e 43be d3b1 cebe
00000320: f812 8ebe 49a2 92bc ddc0 273e 1e45 723e
00000330: 518f 2cbe c38e 0bbd 4b41 f13c b79a 9c3d
00000340: a96f c33d 7064 8bbe 162f 463e 2710 04be
00000350: d378 b9be bf3f 96be 9cc1 9dbe a94f 25bd
00000360: cf3a 51be e054 113d ee00 343f 43f8 32bd
00000370: 1829 3f3e b9f4 9a3c 5db7 2bbe 76ac 1abf
00000380: c09a bc3c 2fcf 0c3e f7bc 2fbe 830a 8ebe
00000390: 1d51 a5ba 577a fdbb d342 7d3c ea27 6f3e
000003a0: 7d8c afbd f4e3 c8be ffb1 623e 6b14 9abe
000003b0: c38a 853d 6629 2dbe 0070 f4bb 49ea 14be
000003c0: f15f 56be a283 76be 1164 8cbe d7ab efbd
000003d0: 0a04 cd3d 4840 193d 1248 3cbe 895c 26be
000003e0: f943 383e 5cff 0fbe 2b8b 8f3d 5469 28bf
000003f0: 9ab0 44be 1626 ef3d 106d b5be 011c 98bd

bias f4 [28]
-2.173849 -0.49395034 -0.024702175 1.2506635 3.1194837 -0.32643226 -2.150323 -1.5191025
4.602471 0.46412843 -0.22925667 0.15841576 -0.27086562 -0.3960116 -0.9314093 1.5459597
-0.32300815 -0.63689995 -0.62385446 -0.26127416 -0.12529469 -0.21251954 -1.0880297 -0.20846447
-79.137695 2.0929768 -4.1825776 -0.3640592
00000000: 5820 0bc0 0fe7 fcbe 375c cabc be15 a03f
00000010: 9fa5 4740 2122 a7be e49e 09c0 f371 c2bf
00000020: 7147 9340 3ea2 ed3e 43c2 6abe be37 223e
00000030: e6ae 8abe 08c2 cabe d770 6ebf 02e2 c53f
00000040: 5361 a5be e00b 23bf edb4 1fbf bac5 85be
00000050: 404d 00be b99e 59be 8f44 8bbf b677 55be
00000060: 8046 9ec2 55f3 0540 add7 85c0 f865 babe

weight f4 [14, 28]
-0.033791773 0.10073449 0.09506711 -0.012120693 -0.21731216 -0.12959433 -0.17562234 -0.1975226
-0.115559444 -0.05162761 -0.18897347 -0.07456159 -0.19058007 -0.20544955 0.024255473 -0.049804956
0.08849713 -0.27682707 -0.08397199 -0.18333198 -0.011015686 -0.014281329 -0.2440821 -0.13353701
-0.388454 -0.12637569 -0.1936805 -0.11385442 0.30340454 0.16644973 -0.060787804 0.009387345
-0.07037879 0.083034754 -0.1364452 -0.014028524 -0.16779134 0.058086786 0.0045766663 -0.072290875
-0.1155636 0.033800986 -0.085076794 -0.041801706 0.025909983 0.013109854 -0.048961546 -0.0018794204
-0.04437153 0.42181635 -0.08104674 0.053069115 -0.23081952 -0.07005849 0.058772765 -0.0012044773
-0.070820846 -0.0982109 -0.015579447 -0.34583712 -0.19217041 0.16936763 -0.20789342 -0.19252233
-0.3246105 -0.4127842 0.04342695 -0.107815765 -0.37884638 0.010362997 0.11375887 -0.09897262
-0.11452249 0.17267464 -0.07414797 -0.13218446 0.18817243 -0.031915806 -0.27838302 -0.13634019
-0.9966295 -0.5247682 -0.25057077 0.090938866 -0.046766702 0.13974507 0.021411518 0.05396834
-0.06850291 -0.059331864 0.14980763 -0.056682672 -0.08449793 0.16031754 0.16520567 -0.14739725
0.018656606 0.008600191 0.006311621 -0.07640811 -0.050196514 0.23592123 0.14050987 -0.11358321
0.23828666 -0.06594836 0.15649188 0.14074305 -0.8124928 -0.082398705 -0.1174102 -0.033376183
0.4306434 0.3681085 0.27315852 -0.32084385 -0.43189767 0.060440995 0.06901843 0.34660146
-0.3205097 0.112745784 0.041915487 -0.28590932 -0.541992 -0.19204818 0.2502935 -0.34148782
-0.031627946 0.22220352 -0.08299731 -0.05810512 -0.03355018 0.59181756 -0.17135245 0.09014649
0.17616062 -0.15867138 -0.04859251 0.31934175 -0.123764485 0.061662987 -0.107155 -0.32875407
-0.2335756 -0.15399504 -0.27953097 -0.3085814 -0.28479758 0.15207036 -0.14302175 -0.14277747
-0.025563365 0.04640597 -0.17900576 -0.24975148 0.0613427 0.05472651 0.07883249 -0.13352357
-0.13079756 -0.2617507 0.035074234 0.014157906 -0.13147971 -0.0120764375 -0.16300884 -0.030319601
-0.118387476 0.069001794 0.16772307 -0.22074543 -0.29407987 -0.017229574 0.003385159 0.09058276
-0.108948104 0.031356674 -0.18284863 0.046590384 -0.18447053 -0.2100717 -0.28911948 -0.36461592
0.07005807 0.13172987 0.20017959 -0.0052742325 0.110591695 -0.14283016 -0.2193897 0.42060006
-0.30465567 -0.22182624 -0.07773837 -0.16504112 -0.1958573 0.10603359 0.06957154 0.10265739
-0.28786886 -0.019170318 -0.15812297 -0.091419026 -0.2500237 0.2049968 -0.12519759 0.09519291
-0.2522287 -0.01756345 -0.17596394 0.009872529 -0.10974458 -0.084457316 -0.10270569 -0.09915991
0.0043756417 0.05569033 0.037061047 -0.07622731 -0.704615 -0.04801421 -0.12903084 0.09388408
-0.26729 -0.17830127 0.2899041 -0.13259147 -0.90166354 0.072617196 0.38805473 0.37450883
-0.83268774 -0.22526155 0.2843972 -0.0872649 0.013547574 0.09437724 0.14935459 -0.02173619
0.21795347 0.022417003 -0.014268198 -0.03385941 -0.041321002 0.09839922 -0.0987341 -0.09964393
-0.4734578 -0.6221394 0.23876296 0.017998341 -0.07624928 -0.020732468 0.0038743299 -0.21059029
00000000: 3e69 0abd e24d ce3d 8cb2 c23d df95 46bc
00000010: 1487 5ebe 60b4 04be 58d6 33be 5d43 4abe
00000020: 6eaa ecbd 7977 53bd 4382 41be bfb3 98bd
00000030: 6c27 43be 5e61 52be 6ab3 c63c 4800 4cbd
00000040: fc3d b53d 47bc 8dbe 82f9 abbd 61bb 3bbe
00000050: 237b 34bc 3cfc 69bc a8f0 79be edbd 08be
00000060: 71e3 c6be a168 01be 2e54 46be 822c e9bd
00000070: d757 9b3e cc71 2a3e a2fc 78bd 61cd 193c
00000080: c122 90bd 200e aa3d 4ab8 0bbe e5d7 65bc
00000090: 7ed1 2bbe 69ec 6d3d dcf7 953b 3d0d 94bd
000000a0: 9cac ecbd e772 0a3d be3c aebd 4438 2bbd
000000b0: 2c41 d43c b7ca 563c e78b 48bd e256 f6ba
000000c0: ecbe 35bd 50f8 d73e d5fb a5bd 005f 593d
000000d0: f45b 6cbe d37a 8fbd b6bb 703d 8ddf 9dba
000000e0: 850a 91bd cc22 c9bd f040 7fbc 9011 b1be
000000f0: 52c8 44be b56e 2d3e 03e2 54be 9324 45be
00000100: 5933 a6be 7358 d3be 75e0 313d 83ce dcbd
00000110: 27f8 c1be 8fc9 293c 69fa e83d 28b2 cabd
00000120: c48a eabd 9fd1 303e e4da 97bd 5d5b 07be
00000130: 46b0 403e 26ba 02bd 3888 8ebe c39c 0bbe
00000140: 1c23 7fbf 3557 06bf d04a 80be 283e ba3d
00000150: 718e 3fbd 5519 0f3e 3567 af3c e80d 5d3d
00000160: 414b 8cbd f805 73bd 2c67 193e 172c 68bd
00000170: 400d adbd 482a 243e ad2b 293e 4eef 16be
00000180: bdd5 983c d1e7 0c3c b7d1 ce3b db7b 9cbd
00000190: dc9a 4dbd 5695 713e d2e1 0f3e 509e e8bd
000001a0: 6b01 743e ef0f 87bd 683f 203e f21e 103e
000001b0: 87ff 4fbf a7c0 a8bd c274 f0bd 77b5 08bd
000001c0: 4b7d dc3e b878 bc3e 6fdb 8b3e a545 a4be
000001d0: b121 ddbe fa90 773d 8959 8d3d bf75 b13e
000001e0: d919 a4be 43e7 e63d 93af 2b3d b562 92be
000001f0: fdbf 0abf 47a8 44be 7826 803e 7ed7 aebe
00000200: 4e8c 01bd 5289 633e 7efa a9bd a2ff 6dbd
00000210: ea6b 09bd 5b81 173f 0477 2fbe b99e b83d
00000220: 7363 343e c07a 22be f108 47bd c380 a33e
00000230: 3c78 fdbd 5492 7c3d 1574 dbbd 7452 a8be
00000240: 712e 6fbe e0b0 1dbe af1e 8fbe 62fe 9dbe
00000250: fdd0 91be 55b8 1b3e 4b74 12be 4234 12be
00000260: 436a d1bc 3014 3e3d 494d 37be dabe 7fbe
00000270: 7c42 7b3d e828 603d ee72 a13d 67ba 08be
00000280: ccef 05be 3004 86be 00aa 0f3d 90f6 673c
00000290: 9ea2 06be 40dc 45bc caeb 26be d060 f8bc
000002a0: 2275 f2bd d050 8d3d 99bf 2b3e 170b 62be
000002b0: a391 96be 0925 8dbc 8bd9 5d3b 7483 b93d
000002c0: 2f20 dfbd db6f 003d ac3c 3bbe 8fd5 3e3d
000002d0: d8e5 3cbe 091d 57be 7807 94be f0ae babe
000002e0: 9b7a 8f3d 32e4 063e e1fb 4c3e 78d3 acbb
000002f0: e67d e23d 1242 12be b2a7 60be e458 d73e
00000300: d4fb 9bbe 6b26 63be 4b35 9fbd 8a00 29be
00000310: d18e 48be 2428 d93d 867b 8e3d 0a3e d23d
00000320: 8c63 93be 120b 9dbc fdea 21be e639 bbbd
00000330: 1b03 80be aeea 513e cc33 00be 80f4 c23d
00000340: 1f24 81be 39e1 8fbc e42f 34be 63c0 213c
00000350: c4c1 e0bd f5f7 acbd 5c57 d2bd 5a14 cbbd
00000360: 8b61 8f3b 8b1b 643d 53cd 173d 101d 9cbd
00000370: a661 34bf 8caa 44bd a920 04be 4c46 c03d
00000380: 3cda 88be 9c94 36be 4f6e 943e 0fc6 07be
00000390: 6cd3 66bf 53b8 943d 1caf c63e 9fbf bf3e
000003a0: 062b 55bf f7aa 66be 839c 913e f1b7 b2bd
000003b0: a5f6 5d3c db48 c13d 69f0 183e 1810 b2bc
000003c0: 322f 5f3e dda3 b73c 29c5 69bc 2ab0 0abd
000003d0: 3640 29bd 8885 c93d 1b35 cabd 1e12 ccbd
000003e0: 1069 f2be 8744 1fbf 477e 743e 4271 933c
000003f0: 9528 9cbd 23d7 a9bc 78e8 7d3b fba4 57be

bias f4 [14]
-0.41176143 -0.13388579 -0.336585 -0.48279423 -0.053205155 -0.218543 -0.3246368 -0.23534691
-2.7657514 -0.52546126 -0.5052115 -0.6193479 -0.64041793 -0.07319843
00000000: 65d2 d2be 5b19 09be de54 acbe ce30 f7be
00000010: a6ed 59bd bcc9 5fbe cb36 a6be c8fe 70be
00000020: 1202 31c0 a184 06bf 8a55 01bf 958d 1ebf
00000030: 6ef2 23bf 0fe9 95bd

weight f4 [7, 14]
-0.039662916 -0.25660062 0.1181245 0.16285482 -0.24036482 -0.39073712 0.06384159 0.05787343
-0.13552286 -0.30281496 -0.29443225 0.4295921 -0.14394893 0.07148167 -0.2600002 0.4938527
0.40226424 -0.17869547 -16.10254 0.10225456 -0.02203673 0.013715082 -0.2635649 -0.1236086
-0.06779712 -0.3151263 0.35107148 0.25518867 -0.25106704 0.3093347 0.3277396 0.059740897
-0.15566264 0.028403193 0.40210474 0.16594131 0.08106335 -0.00032526345 -0.29182208 -0.13193609
0.68661606 -0.015075204 0.090222046 0.18545464 -0.49477676 -0.07762924 -0.3628125 0.20555657
-0.2926983 -0.19845581 -0.27804363 0.19697961 -0.32987487 -0.100995965 -0.31161985 0.24696705
0.023715068 0.16160135 -0.70300865 -0.28075743 -0.152866 -0.23691425 -0.51388204 -0.31603113
-0.18098576 -0.13957742 -0.13157414 0.3482336 0.11508043 -0.089948796 -0.037718557 -0.12030329
-0.069412805 -0.27735785 -0.29904956 -0.13619286 -0.21565495 -0.12554206 -0.18761767 -0.113669276
-0.06330451 0.47629726 -0.6042486 -0.15047035 -0.031390592 -0.37548175 0.031994794 -0.013844843
-0.21647298 0.078121066 0.3035233 0.36797315 -0.18249865 0.16707808 -0.18295625 0.27552453
0.27202603 -0.34086093
00000000: 9575 22bd 2861 83be 42eb f13d 6ac3 263e
00000010: 3222 76be b20e c8be 61bf 823d b10c 6d3d
00000020: 81c6 0abe 900a 9bbe d3bf 96be 7ff3 db3e
00000030: 5967 13be fb64 923d bf1e 85be 43da fc3e
00000040: 94f5 cd3e f2fb 36be 00d2 80c1 d76a d13d
00000050: 5f86 b4bc 39b5 603c fbf1 86be 8126 fdbd
00000060: 37d9 8abd 3c58 a1be a4bf b33e 17a8 823e
00000070: dc8b 80be 1e61 9e3e 7ccd a73e dfb2 743d
00000080: 0766 1fbe d0ad e83c ace0 cd3e 85ec 293e
00000090: 8b04 a63d 1f88 aab9 b469 95be 411a 07be
000000a0: 12c6 2f3f fdfd 76bc 56c6 b83d d2e7 3d3e
000000b0: 6153 fdbe 14fc 9ebd 8fc2 b9be 6c7d 523e
000000c0: 8ddc 95be 0038 4bbe bc5b 8ebe 06b5 493e
000000d0: 5ce5 a8be f9d6 cebd a38c 9fbe eee4 7c3e
000000e0: 1a46 c23c d37a 253e 60f8 33bf 70bf 8fbe
000000f0: e888 1cbe a699 72be c68d 03bf d5ce a1be
00000100: 5554 39be 62ed 0ebe 5fbb 06be ad4b b23e
00000110: 4aaf eb3d 1337 b8bd c67e 1abd 9261 f6bd
00000120: 4d28 8ebd d901 8ebe 061d 99be 2476 0bbe
00000130: a7d4 5cbe 198e 00be d91e 40be 70cb e8bd
00000140: cca5 81bd 3cdd f33e 09b0 1abf e614 1abe
00000150: 6c93 00bd 253f c0be f90c 033d 7bd5 62bc
00000160: 18ab 5dbe f0fd 9f3d 6867 9b3e fa66 bc3e
00000170: ede0 3abe 8416 2b3e e258 3bbe 8d11 8d3e
00000180: ff46 8b3e 5385 aebe

bias f4 [7]
-0.90348023 -0.2287867 5.04448 -0.61418974 -0.48809767 -0.080054276 15.624165
00000000: 7b4a 67bf 1047 6abe 616c a140 8a3b 1dbf
00000010: f0e7 f9be 7ff3 a3bd 94fc 7941

weight f4 [3, 7]
-0.4368109 0.040834095 1.3777397 -0.06439288 -0.77096605 -0.06557059 -1.4766881 0.13031553
-0.49579915 -0.61564565 0.5091388 -0.19445364 0.011897356 -0.48227823 0.29973242 -0.3149881
-0.33122462 -0.37852278 0.11997983 0.47000355 0.3936799
00000000: aea5 dfbe a741 273d c659 b03f 6ae0 83bd
00000010: 085e 45bf e049 86bd 1e04 bdbf 6f71 053e
00000020: 63d9 fdbe f49a 1dbf ec56 023f db1e 47be
00000030: 21ed 423c 2ced f6be 8776 993e 1f46 a1be
00000040: 4696 a9be bdcd c1be fcb7 f53d 4ea4 f03e
00000050: 6990 c93e

bias f4 [3]
6.7582717 4.0252304 -8.001421
00000000: c343 d840 b0ce 8040 d205 00c1
