DL/models/pug/model_all_1.pth (torch, 9136 bytes, 10 tensors)

weight f4 [32, 7]
00000000: d4f6 e2bd b62f 90be d69c 95be 583a 0cbd
00000010: e810 c3bd 6d75 a4be 60d0 2abe 85bc e8be
00000020: 1a0f 2c3e f623 7abd 8c45 b4bd e0da e7be
00000030: 9dc7 ebbe 577b 05bf 00c5 e5bc b0f0 e9bd
00000040: 99f0 acbe ec28 8ebe 34d5 80be 454d babe
00000050: 085f 14bd e3f5 d9c2 1576 9741 bc33 7cbe
00000060: f9d6 9dbf 16aa c2bf 9a97 f942 fda5 943f
00000070: 5f5b a9bd 34da ec3e 1540 89bc 7b44 f8be
00000080: f096 893d 5b43 8c3e a725 efbe c4a1 84be
00000090: eac0 a7be 800e 12be 595f 9cbe 5bb6 40be
000000a0: 38cd 89be ee3d 0abf 235e 8d3e 8d57 5e3b
000000b0: c651 71be cb52 b2be 6509 5a3d 1020 423e
000000c0: b564 73be ae59 7c3e 237f 30be 5e72 8fbe
000000d0: 843c febd 76d8 80be 32c6 463e 406c 46bd
000000e0: 7f9a 46bb 11c9 523e c094 35be 835f 8cbc
000000f0: e7e7 9fbe 8a54 01be 0993 80be b499 70be
00000100: e099 e13d dee1 16be 48b7 b9be 25ab 39bc
00000110: 8e57 063d c69b 93bc 9950 35bd a3ad 73bd
00000120: 81ae 03be 5ca2 93be abd5 c5be 2289 933e
00000130: c8bf 17bf 343e a5bd e00b 9dbd f67f 14be
00000140: 5ec6 10be 7595 1bbe a0a5 4fbc caac 48be
00000150: f7c0 fdbe cb86 9fbe 4fdd 41bf 0413 babd
00000160: 4dc6 e6be ecaa b5be ebf2 07bf 0991 113f
00000170: 95b6 4fbf 8143 16bd f1e4 8abf f2ea 4f3d
00000180: d302 00bf ca63 45bf 67dd 4242 69e4 bbc1
00000190: 3e4d edbb 2496 f33b 4974 eb3b 90ca 0842
000001a0: 8388 ba3f 1508 cfbe ed89 333e 3869 d9be
000001b0: 8902 01bf 2ce1 b3bc 5709 aabe 1af9 6dbc
000001c0: 4b6a 32bd bd21 13bf f0be c3bd 7b77 d3bd
000001d0: ac47 17bf 8c10 fabe 1c25 f0be 5b2e 31be
000001e0: 895f 0ebf a06a c2bd dbf6 2ebe ca96 8abe
000001f0: 7338 4fbe 1473 b9bd b82b 73bd eb63 39be
00000200: f269 07be 7d98 0fbf 524f e3be 418f 72be
00000210: 1e35 1dbd 92ef d2be c2f1 ae3e 96ae 5fbe
00000220: 1367 b9be 4e4b 98be 64b4 bebb d9e6 2cbd
00000230: 23a2 3abf 5961 e4bd 5fa9 89be 1552 a3be
00000240: 7174 253e 1093 abbe 3fba 66bf 0602 97bd
00000250: 7827 953e 7b4f 37bd abe4 3dbe 0a94 bebd
00000260: 9900 96bd ff38 a0be 9727 67bf 943a 8e3e
00000270: 4194 b9be d5c8 bfbc 90ea f6bd 8f91 38bf
00000280: 9c5a 4cbf cd33 cd3e a4f7 71bf 6693 a1be
00000290: 6f0d ddbd fc99 d6be 1741 49be 5691 dabe
000002a0: bb75 7cbe 5720 fbbe d32d cabd d899 f5bc
000002b0: 5ddb 3f3c fed8 c1be 2659 6dbe 152d c53d
000002c0: e187 3a3d 9a8a fbbd f76b adbe d143 65bc
000002d0: 1744 65bc 6a7d bdbe 6d1c a33e 9881 5c3d
000002e0: 9ae7 28be f05b 8abd 7c43 a7be 1cb6 2c3d
000002f0: 0899 f3bc e25f 92be 8fd9 0d3d 373a 3bbf
00000300: 7ac7 51bf b835 e6be 6768 b5be 1a3e 19bd
00000310: 5e7c a33e bb31 17bf a373 2abd 29ba 88bd
00000320: 5f8f 47be 8209 e2bd fde7 4bbb 8f4c f2be
00000330: 6f3b bbbe 4a83 b4be c90a b0bf 69b6 d03c
00000340: b482 1dbf 38a4 87be 51cf b9be 3003 e8be
00000350: 1ad0 c3be 144c 7abe cd61 23bf 8c01 97be
00000360: 46e4 69bf 7518 34bf 7251 e0be 3d8e b7bd
00000370: 74db 11c0 2b3c 29bf a812 1d40 8a52 30bd
-0.11082235 -0.281614 -0.2922122 -0.03423533 -0.09524709 -0.3212084 -0.16681051 -0.4545633
0.16802636 -0.06106945 -0.088023275 -0.45284176 -0.4605073 -0.52141327 -0.028048038 -0.114228606
-0.3377731 -0.27765596 -0.2516266 -0.36387077 -0.03622344 -108.98025 18.932657 -0.2462911
-1.233123 -1.5208156 124.7961 1.1613156 -0.08269381 0.46260226 -0.01675419 -0.48489746
0.06718242 0.27395138 -0.46708414 -0.25904667 -0.3276437 -0.14263344 -0.30541494 -0.18819563
-0.26914382 -0.5400075 0.27610883 0.0033926696 -0.2356635 -0.3482879 0.053231616 0.18957543
-0.23768885 0.24643585 -0.17235999 -0.28016943 -0.12413886 -0.25165147 0.19411543 -0.04844308
-0.003030449 0.20584513 -0.17732525 -0.017135387 -0.31231615 -0.12629905 -0.2511218 -0.23496133
0.110156775 -0.14734599 -0.36272645 -0.011332308 0.032798342 -0.018018615 -0.044266317 -0.059491765
-0.12859537 -0.28834808 -0.38639578 0.28815562 -0.5927701 -0.08068505 -0.076682806 -0.14501938
-0.14138171 -0.15193732 -0.012673765 -0.19597164 -0.49561283 -0.31157526 -0.75728315 -0.09085658
-0.45073166 -0.35481966 -0.5310504 0.5686193 -0.81137973 -0.03668547 -1.0851117 0.05076117
-0.5000431 -0.7710539 48.716213 -23.486528 -0.007241874 0.0074336696 0.007185493 34.197815
1.457291 -0.40435854 0.17533083 -0.42463088 -0.50394493 -0.021957956 -0.3321025 -0.0145247225
-0.0435584 -0.57473356 -0.09557903 -0.103255235 -0.5909374 -0.4884075 -0.46903312 -0.1730284
-0.55614525 -0.09492993 -0.17086355 -0.27068168 -0.20236377 -0.090551525 -0.059367865 -0.18104522
-0.13224009 -0.56092054 -0.44396454 -0.2368746 -0.038380735 -0.41198403 0.34168822 -0.21843943
-0.36211452 -0.29744953 -0.005819844 -0.04221234 -0.7290365 -0.1115138 -0.26887032 -0.3189856
0.161577 -0.33510637 -0.9012794 -0.07373433 0.29131675 -0.044753533 -0.18544261 -0.0930558
-0.07324333 -0.31293485 -0.90294784 0.27779067 -0.3624592 -0.023411194 -0.12056458 -0.72097105
-0.7982576 0.40078583 -0.94518495 -0.3155777 -0.10793578 -0.41914356 -0.19653736 -0.42689008
-0.24654286 -0.4904811 -0.098720215 -0.029980585 0.011710015 -0.37860864 -0.23178539 0.09627739
0.04553974 -0.122822955 -0.33871433 -0.0139932195 -0.013993285 -0.37009746 0.31857625 0.053834528
-0.16494599 -0.06755817 -0.32668674 0.04216586 -0.029736057 -0.28588778 0.03463131 -0.73135704
-0.81945 -0.4496286 -0.35431215 -0.03741274 0.31930822 -0.5906026 -0.041614186 -0.06676132
-0.19488285 -0.1103697 -0.0031113618 -0.47324035 -0.36568782 -0.35256416 -1.3753291 0.025477605
-0.6152756 -0.26492476 -0.36290982 -0.45314932 -0.38244706 -0.24443084 -0.6382111 -0.29493368
-0.9136394 -0.7034982 -0.43812138 -0.08962677 -2.2790194 -0.66107434 2.4542637 -0.043047465

bias f4 [32]
00000000: 5d2a 81be a9b5 7ebd a894 51bd 09f1 14c2
00000010: 36f8 6dbe 0bbc 29bf f4ce bf3c 7879 8ebe
00000020: 48c5 2fbe 4291 b53c 990c 14c0 d0fd 85bc
00000030: 5a04 02bf 528f 283a 43e6 38c3 0e88 cdbe
00000040: 08cb 50bf 3b06 29bf ddef 93bf 23e9 e23f
00000050: f6a5 0f3e 3ffd 3abe d5d4 8d3f 64c0 4fc0
00000060: dc91 e6be 9167 fabf d2f3 393f 582e 49bf
00000070: 0b00 e4be 0d56 b43f a004 eebe 02e2 bcc0
-0.25227633 -0.062184963 -0.05116716 -37.235386 -0.23239216 -0.66302556 0.023414113 -0.27827048
-0.171651 0.02216399 -2.313269 -0.016356379 -0.5078789 0.0006430048 -184.89946 -0.40142864
-0.815598 -0.6602513 -1.1557575 1.7727398 0.14028153 -0.18260668 1.1080576 -3.2461176
-0.45033157 -1.9562856 0.72637665 -0.7858634 -0.44531283 1.4088761 -0.46487904 -5.902589

weight f4 [16, 32]
00000000: d653 ecbd 5fd8 aa3c 407f dcbb 9a71 b53e
00000010: 7361 17be 68a0 8d3d 78fe ddbd cc2d 2b3d
00000020: 6878 e9bd 4516 a93d 2e43 25be 703d 6fbc
00000030: 5b3a aabd cb60 9c3e 8a89 f1bf d35b 02be
00000040: be33 253d 3853 22be 0275 f4bd d34c 4c3d
00000050: f36b a63e da6d 7c3d bd4c e53d 6560 14bc
00000060: 54d8 933d 7400 91bd 2c83 8b3d 16fe a4bd
00000070: 3142 34bd 25d8 d33e cb73 2cbd a277 1fbe
00000080: 8472 98bd 3ef7 20be 108b ecbc 838b 16bd
00000090: d752 89bd 94dc 18be cab3 27be 2d47 26be
000000a0: b7b6 eabc 1d5d 043e a2ff 3cbe 1a53 f3bd
000000b0: ab4f dabe 4819 45bd 641d b7be 5825 2c3d
000000c0: 51e0 fabd 63fa 51be 12b1 93bd e075 14be
000000d0: be66 193e 0780 3a3d 695e ccbe 78e1 e7bd
000000e0: a913 2fbc 6cda c9bc db8b 56be 1877 3fbd
000000f0: 7c63 8b3d 0197 28be c3e7 be3e 60f0 0bbe
00000100: b079 1bbe 4216 25be 19c7 8abd e8bf a1bd
00000110: f0ff b13c 9bbc 093e d099 c9bd 106d 10be
00000120: 5188 2f3e 48f7 b8bc ef89 4f3e 3f00 04be
00000130: 7098 033d 41e8 01be 8963 c8be 008a 98bb
00000140: 598f 58be 7ea6 93be acb4 a4be 6214 00be
00000150: a07d 17bd e060 cebb 0ed7 9a3d dbf7 b4be
00000160: c075 c5bc a443 89be f0fe 373d 1dde 9bbd
00000170: 2e42 1bbe f8cb 4b3d 0045 503a a952 57be
00000180: a9f4 2cbe b4ea 4ebe 0095 123c 1128 87b8
00000190: 086c 03be fd46 2bbe 4f75 053e 70f2 72bc
000001a0: bdc7 17be 8216 df3d 1797 7bbe 52fc b03d
000001b0: 1027 6fbc d427 dabd 05c3 fcbe 647f 553d
000001c0: c21d 17be ad35 12be 5f64 373d 7613 95bd
000001d0: 3ece 8fbd c52f 02be 1589 92bd 15da 57be
000001e0: 22db 00be 948f a5bd 51bb ed3b 1f42 0fbe
000001f0: 23e9 cbbd ea08 b33d e088 f7bc 259c 90be
00000200: b6f5 00be f064 d0bd c02e a2bc 8546 223e
00000210: 9370 2bbe b01c 243c 8d19 39be ff11 34be
00000220: aba4 2fbe d6f8 b93d fb6c 1dbd c927 053e
00000230: c2d0 b73c 16d5 823d cf00 9cbe c09e 583e
00000240: abbb a9bd 69c3 43be 2e5e f5bd e560 49be
00000250: ed58 ce3d 614b 22be 8320 67bd cecf f53d
00000260: a38b 103e 1740 f8bd 884e 9dbc 127d 903c
00000270: e480 833c 43ff 943d 645a a03d 39d7 d2bd
00000280: 8e09 00be aa2d 1cba a2e9 ef3d a25f 59be
00000290: a7b1 1fbd c1a1 053e 0cdf 993d 46cb b33d
000002a0: 9f1a 703e d475 6b3e 6c07 c4bc 9f35 d2bd
000002b0: 4299 f1bd 3271 4abd b29e a3bd 8181 013d
000002c0: d882 fe3d 6991 0e3e eb9e d93b 4678 8ebd
000002d0: 8ca9 e4bd 70f8 1f3d 7d72 89bb 2e2a 033e
000002e0: 9403 b93d b99a a9ba ed7d 9fbb 54bc 40bf
000002f0: 5109 15be 4f85 933d 8ae8 1cbd bd1e fcbd
00000300: 3b8d 0f3e 4d66 9ebd b671 fb3d aff7 6fbe
00000310: 74b1 853d 2cd8 08be 4c2f 0abd 6417 b5bd
00000320: 6496 1e3e b0e4 cabd a01b 413c de5a d8bd
00000330: 8905 bb3e 1548 6cbe f08b 55bd a037 f83d
00000340: 250f 89bd c24d d4bd 738a 543d f2ab a9bc
00000350: 154e 853d 664c f03c 8775 11bd 67a2 99bd
00000360: 605d 953b 47e1 8c3d f816 9f3b 8613 92be
00000370: 7c94 de3c c1fd 9fbe 64e2 8ebd d92b 993a
00000380: 8699 0dbe aa19 d93d b0c7 23be b8d2 2dbe
00000390: 1255 25be 88fc c5bc 8bab 2c3e d9d5 1d3e
000003a0: c021 dfbd 06a1 073e 08c8 ea3c 645f 2dbe
000003b0: c76c 3cbc 9d33 33be e7e9 57be ceba 06be
000003c0: ea46 82bc 3c62 02be 991d 2a3d 0fb0 fd3c
000003d0: 6596 20bd 8b77 0ebe 963a 68be 9b3d 9c3d
000003e0: 8d53 f3bd 43a9 aa3d 1525 6a3d 082e e33d
000003f0: 7181 a63d bcfa d33d 4edb da3d 8a3b 38be
-0.11539428 0.020855127 -0.0067290366 0.35438234 -0.14783268 0.06915361 -0.10839552 0.041791722
-0.11399919 0.08256201 -0.16138908 -0.01460205 -0.08311912 0.30542597 -1.8870099 -0.1273034
0.04033255 -0.15852058 -0.1193638 0.049877953 0.32504234 0.0616282 0.11196277 -0.009056185
0.07218996 -0.070801646 0.068121284 -0.080562755 -0.044008438 0.41375843 -0.042102616 -0.1557298
-0.07443717 -0.15719315 -0.028874904 -0.036754142 -0.067052536 -0.14927894 -0.16377178 -0.16238089
-0.028651578 0.12926145 -0.18456891 -0.11881085 -0.42638907 -0.048119813 -0.3576461 0.0420278
-0.12249816 -0.20505671 -0.07211508 -0.1449809 0.149806 0.045532253 -0.3991578 -0.113223016
-0.01068584 -0.024640284 -0.20951788 -0.046744436 0.068060845 -0.16463853 0.37286195 -0.13665915
-0.15183139 -0.16121772 -0.06776256 -0.07897931 0.021728486 0.13450854 -0.098437905 -0.14104104
0.17141844 -0.02257885 0.20267461 -0.12890719 0.032127798 -0.12686254 -0.3913844 -0.0046551228
-0.21148433 -0.2883796 -0.32169092 -0.12507775 -0.03698504 -0.0062981695 0.0756055 -0.3534535
-0.024104 -0.26809418 0.04492086 -0.07610724 -0.15161964 0.049755067 0.0007944852 -0.21027626
-0.16890205 -0.2020672 0.008946657 -6.4447646e-05 -0.1283418 -0.16726299 0.13033031 -0.014828309
-0.14822288 0.10892965 -0.24569355 0.08641876 -0.014596716 -0.10652128 -0.49367538 0.052123442
-0.14757445 -0.14278288 0.044773456 -0.072791025 -0.070217595 -0.12713535 -0.071550526 -0.21079285
-0.12583593 -0.08084026 0.007254996 -0.13990067 -0.09956577 0.087419346 -0.030216634 -0.2824413
-0.12593731 -0.10175502 -0.019797683 0.15847214 -0.16742162 0.010016605 -0.18076153 -0.1758499
-0.1715266 0.09080665 -0.03843401 0.13003458 0.02243841 0.06388299 -0.30469367 0.21154308
-0.08287748 -0.19117512 -0.11980854 -0.19665869 0.10075555 -0.15849067 -0.05642749 0.12002526
0.14115767 -0.12121599 -0.019202486 0.017637763 0.01605267 0.0727525 0.07829741 -0.10294957
-0.12503645 -0.0005957732 0.11714484 -0.21227887 -0.03898778 0.13049985 0.07513246 0.08779006
0.23447655 0.22994167 -0.02392932 -0.10264134 -0.1179681 -0.049424358 -0.07989253 0.031617645
0.124273 0.13922657 0.006641259 -0.06956534 -0.11165151 0.039055288 -0.0041945563 0.12809059
0.090338856 -0.0012939788 -0.0048673064 -0.75287366 -0.14554335 0.07203161 -0.038307704 -0.1231055
0.14018719 -0.07734356 0.12277548 -0.23434328 0.06527987 -0.13363713 -0.033736512 -0.08842352
0.15487057 -0.099069 0.0117863715 -0.105642065 0.3652766 -0.23074372 -0.052135408 0.121199846
-0.06692342 -0.103663936 0.051889848 -0.020711873 0.065090336 0.029333305 -0.035512473 -0.07501679
0.0045582503 0.06878906 0.004855033 -0.2853052 0.027170412 -0.31248286 -0.06976774 0.0011686041
-0.13828096 0.10600598 -0.15994143 -0.16974914 -0.16145733 -0.024168268 0.16862313 0.15413608
-0.10895109 0.1324502 0.028659835 -0.1693092 -0.011500544 -0.17500158 -0.2108532 -0.13157198
-0.015902955 -0.12732786 0.041532133 0.03096774 -0.039205927 -0.1391279 -0.22678599 0.07628938
-0.118811704 0.08333065 0.05716427 0.11092764 0.08130158 0.10350558 0.1068636 -0.17991462

bias f4 [16]
00000000: 9a83 913f 12a7 1ebf e1df b0be 543d 9dbe
00000010: 9f70 9a40 86e4 70bf 29eb 61c0 f651 53be
00000020: d2b2 b6c2 9c7c 0fbe 61ec af3f 9e46 c5be
00000030: cada 0a41 6951 b1bd b9be 7fbe 87f8 7ebe
1.1368287 -0.6197368 -0.34545806 -0.30710852 4.8262477 -0.940987 -3.529978 -0.20636734
-91.34926 -0.14012378 1.3744012 -0.3853044 8.678415 -0.08658106 -0.24975099 -0.24899493

weight f4 [8, 16]
00000000: 495c 1bbf 118e fb3d 5a08 15be ac59 e2bd
00000010: dffd 06bf 48b2 fdbd 09b7 b2bc d25d d03d
00000020: 102a 9fbe 1927 25be 6be1 82be 482c 503d
00000030: 0226 7cbe 7620 c13d 1b69 f63d 8c0e 5cbe
00000040: 2de7 c7bf cd1f 23be 58c3 6a3e af41 c63d
00000050: 0886 c6be 293d a33c a3dd 71bd 75a7 a0bd
00000060: ed3b 94c0 07df d4bd a836 b9be cdc2 da3d
00000070: 0f1d 84be cfff 86be 7665 31be 39ee d5be
00000080: ed19 fdbd e315 13be c4ed d53d 7da9 9cbd
00000090: f257 31be ce6a 013e d80b fcbd 44f4 1b3e
000000a0: cd8d 85be ad3c c6bd 054d 19be 6be5 d9bd
000000b0: 840d 48be db22 133e 80c9 f73d f1d8 6ebe
000000c0: d854 b5be 3657 09be d878 fd3d 56c8 4cbe
000000d0: 4f70 9fbe f89e 23be 2a4e 9abe 773a a33b
000000e0: 65c0 83be d04e c1bd 9d54 5fbe 2483 8cbd
000000f0: 01b5 72be 7512 17be 2e84 41be b329 69be
00000100: d842 00bf cd78 e1be 63fb 573e 8cba 2bbd
00000110: a39b 06be 64ba de3c 0e44 b33d b90c 183e
00000120: acdd 303e 96eb 133e 2619 f5be c63c 36bd
00000130: edf6 1a3c 6d78 3f3e a09d a03e 960e 7ebe
00000140: 9188 18be 6475 bf3d 9092 0f3e 0537 373e
00000150: d503 8cbe 4370 163e 8f15 3fbe dd6b c03b
00000160: b4d2 7fbe c72d 853d 43c4 86bd 20b7 90be
00000170: 3598 78bc ae4a 33be 4f55 12bd 615e 10be
00000180: 79f7 99be 028e 9dbe 0395 663d 6812 7bbe
00000190: b1ab f2bd 6e71 7abe 28d2 1abe d7fc c3bd
000001a0: 7e0f 88be 5eec 67be 4ef8 dabd 38b0 3a3e
000001b0: e15e 08bd c2c9 2b3e 6773 21be 400d 6bbd
000001c0: 6bdf f0be bc7d 893d 7e53 2abe e8f2 6fbd
000001d0: e451 9dbd e899 fd3d ad30 1fbd fa4e 7bbe
000001e0: f8e3 b3be 00c3 d0ba ac86 2cbe 6ee3 35be
000001f0: a5ae e5bd d0f0 debd 68d6 0ebe ac83 8dbe
-0.6068769 0.122829564 -0.14553967 -0.1105226 -0.52731127 -0.1238752 -0.021815794 0.10174145
-0.3108678 -0.16128196 -0.25562605 0.05082348 -0.24623874 0.094300196 0.12031766 -0.21489924
-1.5617424 -0.159301 0.2292608 0.09680497 -0.38774133 0.019926624 -0.05904926 -0.0784444
-4.632315 -0.103941016 -0.36174512 0.106816866 -0.2580342 -0.2636704 -0.1732386 -0.41783312
-0.123584606 -0.14363818 0.10445741 -0.07649515 -0.17318705 0.12638399 -0.123069465 0.15229899
-0.26084748 -0.09679542 -0.14970787 -0.10639461 -0.19536406 0.14368765 0.1209898 -0.23324944
-0.35416293 -0.13412175 0.12376565 -0.19998297 -0.31140372 -0.1597861 -0.3013776 0.004981335
-0.25732723 -0.094388604 -0.21809621 -0.068609506 -0.2370186 -0.14753135 -0.18898079 -0.22769813
-0.50101995 -0.44037476 0.2109199 -0.04192595 -0.13145308 0.027188487 0.08753215 0.14848603
0.17272061 0.14445338 -0.4787075 -0.04449155 0.009458286 0.18698283 0.31370258 -0.24810252
-0.14895846 0.09348562 0.14020753 0.17892082 -0.27346674 0.14691262 -0.18660568 0.0058722333
-0.2498272 0.06502872 -0.06580403 -0.28264713 -0.015173008 -0.17508957 -0.035725888 -0.14098503
-0.3007162 -0.30772406 0.056294452 -0.2451874 -0.11849154 -0.24457332 -0.15119231 -0.0956971
-0.2657432 -0.2264876 -0.106918916 0.18231285 -0.03329361 0.16776183 -0.15766679 -0.057385683
-0.47045454 0.06713435 -0.16633412 -0.058581263 -0.07681635 0.12382871 -0.03886478 -0.24541846
-0.35134864 -0.0015927255 -0.16848248 -0.17762539 -0.112149514 -0.10885775 -0.13948977 -0.2763952

bias f4 [8]
00000000: 2e41 99bf ed0d 11bb 0280 c7be 1371 94be
00000010: 5ce3 0abd 3da8 3ebd 6203 e6be d56e 34be
-1.1973016 -0.0022133545 -0.3896485 -0.2899252 -0.033908233 -0.046547163 -0.44924456 -0.17620404

weight f4 [4, 8]
00000000: 10ac 0ebf ccc5 c4be c5cb c7be 8ab2 80be
00000010: 0139 85bd 30ea 55be 76fa 0dbe 12d8 223e
00000020: a3a2 35be 882f 80be 5dde ae3d c2d4 c63d
00000030: 76ef 84be 50fd 163f 4a9d 1b3e 19f0 b0be
00000040: 7230 cfbd 5023 1bbd db6b 893e 9828 9b3e
00000050: 6051 28be 5c8c 76be c467 773d fee9 683d
00000060: a7bc 20be 77c3 ecbb f83e 8ebd b49f bc3d
00000070: e09b d2be 10b0 e63e be38 3abc 8de3 1dbd
-0.55731297 -0.38432157 -0.3902265 -0.25136214 -0.06505013 -0.20890117 -0.13865075 0.15902737
-0.17737822 -0.25036263 0.08538506 0.09708549 -0.25963944 0.58980274 0.1519672 -0.3455818
-0.10116662 -0.037875473 0.268401 0.30304408 -0.16437292 -0.2407698 0.060401693 0.056863777
-0.15696965 -0.0072254497 -0.06945604 0.092101485 -0.41134548 0.450562 -0.011366067 -0.038547087

bias f4 [4]
00000000: 984f 07bf 31b9 a3bf 49f6 5c41 a5d0 3abf
-0.52855825 -1.2790891 13.810128 -0.72974616

weight f4 [3, 4]
00000000: c3d7 1f3d 18c9 193e 98bb 02bf 5601 a23e
00000010: 91c3 afbc d391 8e3e 5bd3 6e3e 3cbc 2cbd
00000020: be9f d0bd 13ce b2be 150c c03f b17e 363d
0.039024126 0.15018117 -0.51067495 0.31641644 -0.021455558 0.2784563 0.23322813 -0.0421717
-0.101867184 -0.34922847 1.5003687 0.044554416

bias f4 [3]
00000000: 1b1b c740 4a99 8840 5542 20c1
6.222059 4.268712 -10.016194
