딥러닝-파이토치/models/lang_MCF/model_all.pth (torch, 8020 bytes, 10 tensors)

weight f4 [15, 26]
0.08650522 -0.13939524 -0.03621337 -0.09845158 0.0122330785 -0.1031281 0.1851402 0.029204085
0.13183163 -0.059643254 0.047623307 -0.118167676 0.10606332 -0.17820689 0.18602015 0.024904564
-0.12067536 0.10644959 -0.1907385 0.04608254 0.09920944 0.16501723 -0.05998014 0.05075884
0.053722084 0.18619274 0.059746787 0.15936519 -0.19203834 -0.0538238 0.08778192 0.11749403
-0.15662152 0.10301538 -0.14643581 0.12957345 0.1588052 -0.16149482 0.12562202 -0.14133161
-0.16101688 -0.028734148 -0.19069242 0.012854338 -0.16640057 0.16318999 -0.16731238 0.0549746
-0.16785266 -0.043459535 0.051900357 0.16749023 0.16211271 0.07505716 -0.33922425 -0.24772632
-0.33320463 -0.39225405 0.4060634 -0.37761125 0.16064046 0.31718117 0.37579817 -0.25800917
-0.096615486 0.27409676 -0.3826034 -0.027389389 -0.23495822 -0.0059233247 0.061006766 -0.011128658
0.07973853 -0.37128463 -0.1425897 -0.27142143 0.20511167 0.13879907 -0.07756801 0.12260763
0.13244058 0.048351377 0.11776917 -0.08790734 -0.12829259 0.05816488 0.075610265 0.17719148
0.066976175 -0.16096237 0.13505833 0.008300692 0.12591995 -0.069936946 0.026810154 0.17823367
0.08480404 -0.056890383 -0.041571572 -0.1113112 -0.12205628 0.13006945 -0.037563622 0.03258583
0.33838615 0.1628679 -0.21957631 -0.15590093 -0.35291553 -0.10855071 0.2169433 -0.1336035
0.2474154 0.19182558 0.028131263 -0.06843785 0.17896912 0.24256152 -0.349318 0.18043022
-0.27374658 -0.13728282 0.03842444 -0.31035474 -0.19005564 -0.050766356 -0.023238698 -0.1764481
0.19602694 0.08152954 -0.28466743 -0.08512814 0.052092362 0.037523318 0.21243413 0.23876126
-0.34894294 0.3840467 0.036405977 -0.030136703 -0.09492226 0.13663286 -0.08890258 -0.19121504
0.31089154 -0.010978754 0.17370114 0.23426643 0.11495182 0.2644028 0.029718552 0.0039922446
0.088397 0.23103687 -0.044226564 0.059328765 -0.24430738 0.02440108 0.11312018 -0.009553389
0.32444325 0.21902288 -0.30173105 0.1599332 -0.14606525 -0.34309566 -0.068847016 -0.08572429
-0.12748402 -0.03769268 -0.031232601 0.07117139 0.16550648 0.26957652 -0.107588395 0.1366937
0.13289556 0.07742784 0.13092113 0.33222625 0.02403119 -0.11499124 -0.22665259 -0.13087676
0.16894831 0.18780734 0.22987325 -0.020278845 -0.04937077 -0.057046417 0.048534986 -0.22675438
-0.11960045 0.17919414 -0.04093041 -0.14239672 -0.096752375 -0.065500766 0.14900713 -0.07264816
-0.029619707 0.028349893 0.018035352 0.09411669 0.15979144 0.21755709 0.13095342 0.093803406
-0.329132 -0.29430544 0.33024672 0.1303031 0.015093841 0.034220167 -0.08257423 0.2773752
-0.15987638 -0.23572622 -0.16776519 0.008600299 0.09434346 -0.0014111609 0.28076202 0.056000426
0.32924262 0.32954973 0.2587175 -0.02139452 0.076160476 0.19928579 -0.008013729 0.33986163
-0.20465858 -0.28159663 -0.04258164 -0.114995934 0.23990105 0.195061 0.042545497 0.16840014
-0.06361911 0.24904877 -0.15724967 -0.2751877 -0.34641358 0.24145177 0.016765255 -0.07092073
0.1605231 -0.12406967 0.05374231 0.23042078 0.26977038 0.043364435 -0.14260419 0.27409446
00000000: a629 b13d a0bd 0ebe 7854 14bd fba0 c9bd
00000010: 406d 483c d334 d3bd 6595 3d3e 683d ef3c
00000020: dffe 063e 7c4c 74bd a810 433d e501 f2bd
00000030: ba37 d93d de7b 36be 117c 3e3e a804 cc3c
00000040: a524 f7bd 3e02 da3d f450 43be 0cc1 3c3d
00000050: 522e cb3d 47fa 283e bcad 75bd 80e8 4f3d
00000060: b00b 5c3d 4fa9 3e3e 0cb9 743d a130 233e
00000070: b3a5 44be 5876 5cbd 02c7 b33d b6a0 f03d
00000080: 6461 20be baf9 d23d 45f3 15be e7ae 043e
00000090: d59d 223e e65e 25be 0fa3 003e 3cb9 10be
000000a0: 9ce1 24be e063 ebbc e044 43be 009b 523c
000000b0: e964 2abe 471b 273e f053 2bbe 0c2d 613d
000000c0: 91e1 2bbe a002 32bd 7895 543d 8f82 2b3e
000000d0: e000 263e 91b7 993d cdae adbe f8ab 7dbe
000000e0: cc99 aabe 86d5 c8be 8be7 cf3e 4356 c1be
000000f0: ef7e 243e 9265 a23e 9e68 c03e c719 84be
00000100: 57de c5bd 6956 8c3e 98e4 c3be b65f e0bc
00000110: e398 70be 7318 c2bb 3be2 793d fa54 36bc
00000120: f44d a33d 0519 bebe 0903 12be c0f7 8abe
00000130: cb08 523e 5821 0e3e fadb 9ebd b619 fb3d
00000140: 819e 073e 180c 463d f630 f13d c308 b4bd
00000150: 225f 03be 4c3e 6e3d 8ed9 9a3d af71 353e
00000160: ce2a 893d 52d3 24be bb4c 0a3e a0ff 073c
00000170: 29f1 003e 1a3b 8fbd f8a0 db3c e382 363e
00000180: bead ad3d e405 69bd f446 2abd 20f7 e3bd
00000190: a5f8 f9bd ed30 053e 50dc 19bd b878 053d
000001a0: f340 ad3e d8c6 263e 9dd8 60be 7ea4 1fbe
000001b0: 58b1 b4be d64f debd 6226 5e3e 5bcf 08be
000001c0: 765a 7d3e ed6d 443e 8973 e63c 2529 8cbd
000001d0: ae43 373e 0c62 783e cfd9 b2be b3c2 383e
000001e0: 8328 8cbe de93 0cbe f262 1d3d d1e6 9ebe
000001f0: f29d 42be 62f0 4fbd 155f bebc d0ae 34be
00000200: 49bb 483e f6f8 a63d eebf 91be aa57 aebd
00000210: cd5e 553d 0db2 193d 5588 593e d57d 743e
00000220: a6a8 b2be c5a1 c43e 6f1e 153d 3fe1 f6bc
00000230: 9a66 c2bd 7ce9 0b3e 8e12 b6bd e0cd 43be
00000240: 2d2d 9f3e 3be0 33bc b6de 313e 8ae3 6f3e
00000250: dc6b eb3d ce5f 873e 5274 f33c 60d1 823b
00000260: 7d09 b53d ee94 6c3e ea26 35bd b802 733d
00000270: b72b 7abe c6e4 c73c 8eab e73d d185 1cbc
00000280: 6d1d a63e 8947 603e 7e7c 9abe 87c5 233e
00000290: 2192 15be 3caa afbe aaff 8cbd 3790 afbd
000002a0: 2c8b 02be a463 1abd 83db ffbc 4ec2 913d
000002b0: 887a 293e ef05 8a3e 4e57 dcbd 6ff9 0b3e
000002c0: c615 083e 7d92 9e3d 3010 063e 8f19 aa3e
000002d0: 0fdd c43c 8780 ebbd 9e17 68be 8f04 06be
000002e0: c900 2d3e 9150 403e e563 6b3e d21f a6bc
000002f0: 0139 4abd 81a9 69bd 9fcc 463d 4d32 68be
00000300: 15f1 f4bd ab7e 373e a5a6 27bd 72d0 11be
00000310: 1c26 c6bd 4425 86bd 5395 183e 8fc8 94bd
00000320: 07a5 f2bc 093e e83c e0be 933c 40c0 c03d
00000330: 5ea0 233e 49c7 5e3e a718 063e 001c c03d
00000340: fd83 a8be 34af 96be 1916 a93e 2d6e 053e
00000350: 284c 773c 722a 0c3d ae1c a9bd 1f04 8e3e
00000360: a2b6 23be 3762 71be a3ca 2bbe 45e8 0c3c
00000370: 2537 c13d b4f6 b8ba 0ac0 8f3e b460 653d
00000380: 7d92 a83e beba a83e 9f76 843e 8f43 afbc
00000390: 06fa 9b3d 9311 4c3e 044c 03bc 5802 ae3e
000003a0: 0592 51be 6f2d 90be 166a 2ebd fd82 ebbd
000003b0: 9fa8 753e 12be 473e 3044 2e3d 1671 2c3e
000003c0: bc4a 82bd a406 7f3e 0f06 21be 67e5 8cbe
000003d0: 1f5d b1be 223f 773e 4a57 893c e33e 91bd
000003e0: 2b60 243e 3d18 febd e520 5c3d 6df3 6b3e
000003f0: 581f 8a3e e89e 313d d506 12be 1c56 8c3e

bias f4 [15]
-0.0849933 -0.16212308 0.11997452 -0.12879407 0.12585331 0.17378028 0.14469711 0.06699606
0.124979176 0.09384985 0.06161867 -0.11202502 -0.084771834 -0.12495517 -0.13282433
00000000: f810 aebd 9803 26be 33b5 f53d 98e2 03be
00000010: b1df 003e 75f3 313e 7b2b 143e 3b35 893d
00000020: 15f5 ff3d 5a34 c03d dc63 7c3d 606d e5bd
00000030: db9c adbd 7fe8 ffbd 1a03 08be

weight f4 [10, 15]
-0.22263451 -0.10687514 0.09093326 -0.0118371695 0.0791363 0.11535263 -0.10677993 -0.17661832
-0.13400073 0.12424692 -0.038121108 0.011665195 0.18993053 -0.040653005 0.020309508 -0.005081296
0.03594491 -0.12880091 0.21904624 0.03129372 -0.020572111 0.10898033 -0.22265999 -0.017478436
-0.2066445 -0.09534119 -0.0164247 0.06459728 0.15932551 -0.037316114 0.016725272 -0.064946964
-0.07107939 0.10532576 -0.040405467 -0.07345724 -0.14925633 -0.22018549 0.18405613 0.07765484
-0.100006804 0.08074647 0.07469973 0.13642928 0.11525202 -0.22639671 0.05916083 0.27426368
0.029794991 0.2862806 -0.26797232 -0.29040533 -0.15980254 0.124793574 -0.0034622932 -0.3927688
0.07518923 0.22125626 -0.050516427 -0.067031026 -0.08525729 -0.118908346 -0.053051468 0.0065612793
-0.011538181 -0.116582386 0.07215782 -0.09742903 -0.015881017 -0.10573276 -0.3481548 -0.18961638
0.09618637 0.21969795 0.025636435 -0.25199223 -0.1425437 -0.34007707 -0.058653966 -0.24016453
0.008146853 0.14982522 0.30195677 0.29674938 0.026319774 -0.0046955887 0.15798321 -0.025001183
-0.21941844 -0.2306388 0.021837264 0.17647395 0.3434001 -0.07685274 0.092857264 -0.23694387
0.07629505 -0.072711796 -0.36582515 -0.27234444 -0.38556018 0.22112578 0.054735422 -0.09471974
-0.17077145 0.2083185 -0.21078166 0.13514753 0.09517896 -0.17608505 0.03613469 0.3386761
-0.053846933 0.33003578 0.24832813 -0.04948886 -0.21236981 -0.14423767 -0.08811672 0.08056843
-0.01759544 0.0045977235 -0.07681389 -0.24939182 0.22146598 0.029418021 0.11723763 0.004213333
-0.035971835 0.1436458 -0.20563829 -0.040798932 -0.031620234 0.040409505 -0.073211506 0.035936803
0.09579027 -0.17518759 -0.034516916 0.056892395 -0.059166193 0.00016027689 -0.13675854 0.06995654
0.17826575 0.020758748 0.11238524 -0.13773978 -0.20943284 0.10772541
00000000: 4dfa 63be 5ae1 dabd 383b ba3d b0f0 41bc
00000010: 3612 a23d 003e ec3d 70af dabd 6fdb 34be
00000020: 7d37 09be 2b75 fe3d e124 1cbd 601f 3f3c
00000030: 267d 423e c483 26bd 2060 a63c 0081 a6bb
00000040: f83a 133d 63e4 03be a84d 603e d82d 003d
00000050: d886 a8bc 1431 df3d fb00 64be f02e 8fbc
00000060: 9e9a 53be 3e42 c3bd 188d 86bc 944b 843d
00000070: 3a26 233e c8d8 18bd 7003 893c ea02 85bd
00000080: 1292 91bd 08b5 d73d 3480 25bd c070 96bd
00000090: a7d6 18be 4e78 61be 3679 3c3e 8009 9f3d
000000a0: 5ed0 ccbd 685e a53d 2cfc 983d 1eb4 0b3e
000000b0: 4009 ec3d 8ad4 67be a052 723d 4a6c 8c3e
000000c0: a014 f43c 5f93 923e ab33 89be 02b0 94be
000000d0: 47a3 23be c693 ff3d a4e7 62bb fe18 c9be
000000e0: d0fc 993d 0091 623e 50ea 4ebd 9047 89bd
000000f0: 609b aebd 3886 f3bd 7f4c 59bd 0000 d73b
00000100: a40a 3dbc bfc2 eebd 7bc7 933d df88 c7bd
00000110: e818 82bc 6b8a d8bd 5941 b2be cc2a 42be
00000120: 5cfd c43d 80f8 603e 8003 d23c 2005 81be
00000130: faf6 11be 951e aebe 243f 70bd b1ed 75be
00000140: 617a 053c c86b 193e 149a 9a3e 89ef 973e
00000150: 919c d73c 74dd 99bb 5ac6 213e 48cf ccbc
00000160: 3aaf 60be 942c 6cbe 10e4 b23c 96b5 343e
00000170: 23d2 af3e f864 9dbd f32b be3d 6aa1 72be
00000180: 9440 9c3d ece9 94bd 6f4d bbbe bb70 8bbe
00000190: 2568 c5be cc6e 623e 4032 603d 6cfc c1bd
000001a0: b6de 2ebe 7251 553e 26d7 57be 1d64 0a3e
000001b0: 30ed c23d a44f 34be f801 143d f466 ad3e
000001c0: 9a8e 5cbd 73fa a83e bb49 7e3e d5b4 4abd
000001d0: 7977 59be 0ab3 13be 8a76 b4bd 1001 a53d
000001e0: 5024 90bc 80a8 963b 9a50 9dbd 9260 7fbe
000001f0: fac7 623e 10fe f03c 481a f03d 0010 8a3b
00000200: 3457 13bd e217 133e d892 52be c81c 27bd
00000210: 3884 01bd 7084 253d eaef 95bd 7832 133d
00000220: b02d c43d 6064 33be 9c61 0dbd 0008 693d
00000230: 4058 72bd 0010 2839 6e0a 0cbe 6045 8f3d
00000240: 4c8b 363e 400e aa3c 3c2a e63d a80b 0dbe
00000250: 9075 56be 249f dc3d

bias f4 [10]
0.037909675 -0.1555439 -0.13784088 0.15251493 0.10059966 0.22362763 0.18495959 0.054653727
-0.11075556 -0.13519469
00000000: 2d47 1b3d e646 1fbe 2926 0dbe e02c 1c3e
00000010: 3207 ce3d a4fe 643e 0c66 3d3e 96dc 5f3d
00000020: d0d3 e2bd 7a70 0abe

weight f4 [8, 10]
0.31225577 -0.13247396 -0.19894782 0.14406234 0.13379622 -0.051888287 0.11953735 -0.07610035
-0.1599909 -0.11367078 -0.0116556585 -0.13632971 0.24563399 0.03294032 0.0017974195 -0.18508558
0.3307695 -0.15180847 0.024188548 0.3005918 0.00072294474 0.28047785 0.07300091 -0.02356553
0.055585742 0.07491243 0.2765611 -0.25291622 0.23159543 -0.081824794 0.055545747 0.24967721
-0.10363689 -0.12838542 0.2781892 -0.19659904 0.16891792 -0.19215333 0.033377826 -0.15572482
-0.18383539 0.07969093 -0.16200519 0.16231316 0.15464738 -0.2579052 -0.25183594 -0.26573244
-0.050260276 0.28091154 -0.19599584 -0.15858313 0.08996326 -0.10131772 -0.27962488 -0.29032502
-0.21686146 -0.2814956 -0.26461896 -0.30785263 0.12095553 0.16779873 -0.25627455 -0.12306242
0.0031678677 0.11772519 0.23302558 -0.16613515 -0.018804222 0.028221399 0.056666005 -0.30906305
0.2230433 0.26321128 0.23358652 -0.18777798 0.12777346 -0.27835366 0.30697235 -0.18867846
00000000: fddf 9f3e 41a7 07be fab8 4bbe 1485 133e
00000010: e001 093e d088 54bd 00d0 f43d 80da 9bbd
00000020: a8d4 23be 3acc e8bd 60f7 3ebc 049a 0bbe
00000030: 7a87 7b3e 6eec 063d 6497 eb3a 1387 3dbe
00000040: 9f5a a93e ae73 1bbe 1027 c63c 2be7 993e
00000050: 0084 3d3a cb9a 8f3e 8081 953d 800c c1bc
00000060: e0ad 633d b06b 993d 6b99 8d3e 3c7e 81be
00000070: 5a27 6d3e c293 a7bd f083 633d 62ab 7f3e
00000080: 943f d4bd 7877 03be d16e 8e3e 4251 49be
00000090: d2f8 2c3e d8c3 44be 30b7 083d 5476 1fbe
000000a0: 583f 3cbe 0035 a33d b0e4 25be 6c35 263e
000000b0: e25b 1e3e 260c 84be a4f0 80be 150e 88be
000000c0: b8dd 4dbd a3d3 8f3e 22b3 48be 9e63 22be
000000d0: a83e b83d aa7f cfbd fe2a 8fbe 7ba5 94be
000000e0: ee10 5ebe 3120 90be 237c 87be dc9e 9dbe
000000f0: 88b7 f73d 6ed3 2b3e 6b36 83be 2608 fcbd
00000100: 009c 4f3b e819 f13d 429e 6e3e 551f 2abe
00000110: 500b 9abc 9030 e73c 9d1a 683d 833d 9ebe
00000120: 7665 643e a1c3 863e 4e31 6f3e df48 40be
00000130: 0cd7 023e 5f84 8ebe 7b2b 9d3e ed34 41be

bias f4 [8]
-0.26302993 0.08720944 -0.12663352 -0.26961553 -0.15206829 0.052898765 -0.070164755 0.18950024
00000000: dcab 86be dd9a b23d 38ac 01be 0c0b 8abe
00000010: cab7 1bbe 60ac 583d 8ab2 8fbd 5a0c 423e

weight f4 [7, 8]
0.08055076 -0.27892494 -0.008589536 0.1379556 0.10745028 -0.314961 0.072707325 0.34574047
0.1066128 -0.17539027 -0.05690068 -0.10092428 -0.20402619 -0.26566103 -0.17011234 -0.2319779
0.24547008 -0.036759883 0.10222849 -0.1731146 0.25125924 -0.2560013 -0.14536794 -0.0071929097
0.1960806 -0.3792743 -0.08795297 0.1224398 -0.21458642 0.27621743 -0.2522953 -0.20779291
0.32987723 0.16527078 0.0045638382 -0.21345912 -0.15864056 -0.28345993 0.15043977 0.25399193
-0.15986232 0.12127656 0.304284 -0.027563453 0.3195717 0.09763047 -0.2362456 0.071419716
-0.10604164 0.1230143 -0.30286965 -0.103897884 -0.044596493 -0.3141201 0.010700524 0.016655348
00000000: ccf7 a43d 40cf 8ebe 20bb 0cbc 3c44 0d3e
00000010: e40e dc3d 9142 a1be 94e7 943d e504 b13e
00000020: d057 da3d 8299 33be b010 69bd 64b1 cebd
00000030: 3eec 50be b904 88be ee31 2ebe 9d8b 6dbe
00000040: 825c 7b3e 8891 16bd 2c5d d13d f444 31be
00000050: 0da5 803e 9a12 83be 55db 14be 80b2 ebbb
00000060: 5ac9 483e 3e30 c2be b020 b4bd b8c1 fa3d
00000070: 8bbc 5bbe 5f6c 8d3e d92c 81be aac7 54be
00000080: abe5 a83e be3c 293e 408c 953b 0795 5abe
00000090: ac72 22be a921 91be e20c 1a3e 3b0b 823e
000000a0: f3b2 23be d85f f83d 1dcb 9b3e c0cc e1bc
000000b0: e79e a33e 7cf2 c73d 5eea 71be 8044 923d
000000c0: 5c2c d9bd ecee fb3d bb11 9bbe 6ac8 d4bd
000000d0: d0aa 36bd 5ad4 a0be 4051 2f3c cc70 883c

bias f4 [7]
-0.07271764 -0.0003119707 -0.17139998 0.38347268 -0.35312366 -0.10221395 0.24967715
00000000: fcec 94bd 0090 a3b9 7a83 2fbe 8856 c43e
00000010: a0cc b4be 8c55 d1bd 5eab 7f3e

weight f4 [4, 7]
0.1965681 -0.033048123 -0.26562753 0.16893403 -0.10012981 -0.16295485 -0.009935826 -0.054940492
-0.19630006 -0.33712164 0.13568269 -0.2739983 -0.30877003 -0.065848015 -0.37167844 -0.09821588
0.22412333 -0.25498128 -0.047622234 -0.057175875 -0.20985341 0.2986873 0.2435889 -0.22577865
-0.077974275 0.05332035 -0.21624142 0.05330096
00000000: 2649 493e 785d 07bd 5500 88be 0bfd 2c3e
00000010: dc10 cdbd a3dd 26be e0c9 22bc 4809 61bd
00000020: e202 49be 359b acbe 67f0 0a3e 8149 8cbe
00000030: 1b17 9ebe 53db 86bd a34c bebe 6825 c9bd
00000040: 9680 653e e88c 82be 880f 43bd 4031 6abd
00000050: d0e3 56be 8bed 983e 5e6f 793e 8532 67be
00000060: fab0 9fbd 7066 5a3d 646e 5dbe 1c52 5a3d

bias f4 [4]
0.044466306 0.19202253 0.26193216 -0.055913042
00000000: 4d22 363d 8ea1 443e f91b 863e 1305 65bd
