딥러닝-파이토치/models/iris/MCF/model_all.pth (torch, 4060 bytes, 6 tensors)

weight f4 [10, 4]
000000 d8 ba 53 be 88 f7 6f be f0 67 31 bd de 9c c3 3e
       -0.20676744 -0.2343427 -0.043312013 0.38205618
000010 44 be 15 be f0 16 1c be 7e 9e 99 be 40 72 7d be
       -0.14623362 -0.15243125 -0.30003732 -0.24750614
000020 a0 be 59 be 5c a0 46 3e 30 f9 d1 bd 74 6f 8e be
       -0.21264124 0.1939711 -0.10252607 -0.27819407
000030 a1 46 34 3e 02 68 fe bd e7 91 98 3e 5e fc 4d be
       0.17605068 -0.12422182 0.29798815 -0.20115802
000040 ce 41 18 3e ed 87 c5 3e 0a aa c3 3e a7 e6 56 be
       0.14868852 0.38580266 0.38215667 -0.20986424
000050 f5 07 d8 3d 7c cd d3 3e 60 ca f2 3d b2 2d 79 bc
       0.10548393 0.4136771 0.11855006 -0.0152086485
000060 2c c5 83 be 5c ad 86 3e c9 63 35 3d e7 04 0c be
       -0.25736368 0.26304138 0.044284616 -0.13673745
000070 05 99 b8 be f6 e3 c3 3e aa 23 4c 3e 41 e4 bb 3d
       -0.36054245 0.38259858 0.1993548 0.09174395
000080 90 19 84 be 34 fd 4d be 58 af 41 be c2 0f 81 3e
       -0.25800753 -0.2011612 -0.18914545 0.25207335
000090 a9 c4 31 3e 84 6e e1 3d fb bb c5 be bd ce 6d be
       0.17360176 0.11007407 -0.3861998 -0.23223396

bias f4 [10]
000000 f8 39 fa bd 2e 59 dd 3e 66 6c da 3e f5 e2 b1 bb
       -0.12218088 0.432321 0.42660826 -0.0054286667
000010 1b 52 ed bd 01 e9 ae be 7e f9 67 3e d9 7d eb bd
       -0.11587926 -0.34162143 0.22653767 -0.11498613
000020 b0 13 d7 3d 5d 7d 91 bd
       0.10501802 -0.07103989

weight f4 [5, 10]
000000 0e 2f 51 be c8 38 ba 3d d6 3f 83 be 5c ec 41 3e
       -0.20428106 0.090928614 -0.2563464 0.1893782
000010 0f 72 32 bd e1 4a 87 3e 04 d4 02 be f3 9d 8a be
       -0.043565806 0.26424316 -0.1277619 -0.2707363
000020 ab 87 6c be 4e 4d 92 be e4 6a 9e be 68 78 92 3d
       -0.23098628 -0.28574604 -0.30940926 0.07151872
000030 eb 37 35 be 10 6e 01 bd 6c 50 c5 3d 48 de 4a bd
       -0.17697112 -0.031599104 0.0963448 -0.04952839
000040 0e e0 7d 3e 6e 43 30 3e da 68 c5 bd 3c ef 89 bd
       0.24792501 0.17213222 -0.096391395 -0.067350835
000050 00 79 1d 3d d0 79 85 bc b8 a3 b0 3d eb ee 9f 3e
       0.038445473 -0.016293436 0.08624977 0.31236967
000060 22 74 16 3e af 45 41 be 7a 9e 6b 3e c8 ac 8f be
       0.14692739 -0.18874238 0.23009673 -0.2806151
000070 d4 b4 03 be 1e 41 17 3d 40 63 ae bb 48 03 5c 3d
       -0.12861949 0.036927335 -0.00532189 0.053714067
000080 de 6a 5b 3e bc e4 bc 3d 7c 45 84 be b6 d0 19 be
       0.21427485 0.09223315 -0.25834262 -0.15021023
000090 28 b7 10 bd 5e 7a 0f be 56 17 4b 3e b8 cb 6a 3d
       -0.03533092 -0.14011523 0.1983312 0.057323188
0000a0 39 a0 80 3e ea 53 65 3e 90 e6 c9 3c f6 19 f9 bd
       0.2512224 0.22395292 0.024646074 -0.12163155
0000b0 ca 3e b4 3d 87 2c 96 3e b4 85 94 3e bc 1c 9e be
       0.088010386 0.29330847 0.29008257 -0.30881298
0000c0 eb 8b 9e 3e e8 c9 32 be
       0.30966124 -0.17459834

bias f4 [5]
000000 3b e4 3f 3e cd fd 8b be 0e 49 76 be a1 cd 84 3e
       0.18739407 -0.27342072 -0.24051306 0.25938132
000010 d9 0f fc bd
       -0.1230771

weight f4 [3, 5]
000000 19 78 98 be 4a 1f 9d 3e 28 2a dd be 9c 9b 43 be
       -0.29779127 0.30687934 -0.43196225 -0.19102329
000010 6f 91 96 3e 1f a5 9e bd b2 0a b9 3e a2 93 da 3e
       0.29407832 -0.07746338 0.36140972 0.4269076
000020 98 6b de 3e d6 b4 83 be 07 26 98 be c0 79 63 3e
       0.43441463 -0.25723904 -0.29716513 0.22214413
000030 05 89 c3 3e 21 91 8e be d1 ea 52 3e
       0.38190475 -0.278451 0.20597388

bias f4 [3]
000000 28 8e 35 3c 10 4e 67 3e 90 2a a6 3e
       0.011081256 0.22588372 0.32454348
