딥러닝-파이토치/models/iris/MCF/model_train_wbs.pth (torch, 3096 bytes, 6 tensors)

in_layer.weight f4 [10, 4]
00000000: 0243 98be d47e 96be 3ed8 ee3e d849 cbbe
00000010: 6ad9 413d bbf3 25be f8da 12bd 2274 dd3e
00000020: b2d7 bf3e d453 a33e 4a4d d6be 041f bb3e
00000030: f2a0 b73e 759b b0be ad66 fabe 3fea 9d3e
00000040: bc91 073e d742 a53e da0b b7be 5264 483e
00000050: 324a fabe e22d 84be 4ce4 ca3e 00d2 42bd
00000060: 6895 aabe 90f4 513d 2c10 56be 3047 bc3e
00000070: 0035 debd 90f9 59bd 2e2a adbe 9ada bb3e
00000080: 43c9 573d bb8a 853e 9230 ad3e 752d ddbe
00000090: 66df c5bd 2ef6 de3e fd3b 793e bacf d63e
-0.29738623 -0.29393637 0.46649355 -0.39704776 0.047326483 -0.16206257 -0.035853356 0.43252665
0.3746925 0.31899893 -0.41855842 0.365471 0.3586498 -0.34493604 -0.4890646 0.30842778
0.13239187 0.32277557 -0.3575123 0.19569519 -0.48884732 -0.25816256 0.39627302 -0.047563553
-0.33317113 0.051258624 -0.20904607 0.36773062 -0.10849953 -0.053216517 -0.33821243 0.36690217
0.052682173 0.26082405 0.3382612 -0.43198743 -0.096617505 0.43547195 0.2433929 0.41955358

in_layer.bias f4 [10]
00000000: ea51 adbe 7130 f23e 5c93 eb3d 63f6 58be
00000010: 56cc b9bc 9ab3 ffbe 7a9e ae3e ec59 c6be
00000020: 8693 8fbe 5ac5 eabe
-0.33851558 0.47302583 0.11502716 -0.21187739 -0.022680443 -0.49941713 0.34105283 -0.3874048
-0.2804224 -0.45853692

hd_layer.weight f4 [5, 10]
00000000: 0497 d43d 1ce5 5cbd f0e4 fa3d c1ea 723e
00000010: d29a 4b3e 084c 493d b9bb 68be c022 703d
00000020: 74a9 8a3e 827b 05be b8a1 86bd 06d4 0e3e
00000030: b711 c13d 565d bfbd f5eb 9abd c01e 34be
00000040: 78e6 f13d 88be 1f3e 27a2 373e 4a1d 44be
00000050: 00c1 2b3e 5a93 a3bd 08bb 343e a6a7 d1bd
00000060: 72b0 263e 4ef1 06be c45d 8e3d 6db0 9cbe
00000070: c619 eebd 5c80 1f3d d683 5f3e 2ccc 53be
00000080: 0e3f 923e c91c bf3d fddb 873e d2a3 c4bd
00000090: 8bfc 8e3e 60d7 eb3c 8b1b e03d fceb 6e3e
000000a0: d003 a6bc f220 493e 2813 a1be 50c8 043d
000000b0: cee7 73be 50f0 07be c0bc 4cbd 1e32 0d3e
000000c0: ac2c b5bd b52e 993e
0.103803664 -0.053929433 0.122506976 0.23722364 0.19883278 0.049144775 -0.2272786 0.05862689
0.27082407 -0.13035396 -0.06573814 0.13948068 0.09427207 -0.09343974 -0.075645365 -0.17589855
0.118115366 0.15600026 0.1793295 -0.19151798 0.16772842 -0.079870895 0.17649472 -0.102370545
0.16278246 -0.13177988 0.06951478 -0.30603352 -0.1162601 0.038940772 0.21827635 -0.20683354
0.28563732 0.09331662 0.26535025 -0.09601559 0.2792705 0.028789222 0.109427534 0.23332208
-0.02026549 0.19641474 -0.31459928 0.032417595 -0.23818895 -0.13275266 -0.049984694 0.1378865
-0.08846411 0.29918447

hd_layer.bias f4 [5]
00000000: f7e8 63be cc25 b7bd 9fc9 d3bd 2596 0fbe
00000010: 6381 90be
-0.22256838 -0.08942756 -0.103411905 -0.1402212 -0.28223714

out_layer.weight f4 [3, 5]
00000000: f1e1 84be 25a8 ddbe fd88 05bd e1a9 2abe
00000010: 409c a4bc 959f a4be 685b 04bc edc5 2abe
00000020: b5ca 6bbe 2cfe fdbd f946 f23c 1250 42bd
00000030: 83c2 b53e 66fd c33c 5dcc d7be
-0.2595363 -0.43292347 -0.032601345 -0.16666366 -0.020094037 -0.32153 -0.008078434 -0.16677065
-0.23026545 -0.12401995 0.029574858 -0.047439642 0.35499963 0.02392454 -0.42148104

out_layer.bias f4 [3]
00000000: 5540 ce3e f281 8b3e 7f4a a33e
0.40283456 0.27247578 0.31892774
