DL/models/iris/BCF/model_train_wbs.pth (torch, 3032 bytes, 5 tensors)

in_layer.weight f4 [10, 4]
000000 ba 58 b7 3e ca 94 1a be 12 27 1d 3e ff 53 33 bd
       0.3580988 -0.15095821 0.15346935 -0.043781277
000010 30 07 be 3d e8 35 8c be ec c1 f7 be 8a aa bc 3e
       0.09278715 -0.27384877 -0.48390138 0.3684886
000020 18 31 97 bd 0e c6 f6 be 2a 43 e2 be 42 b7 8d be
       -0.07382411 -0.4819798 -0.44191867 -0.27678877
000030 39 93 cc 3e d9 f4 93 be 3e 73 f7 3c 12 2a b1 3e
       0.39956072 -0.2889774 0.030206319 0.3460241
000040 42 f8 88 3e 6a ea c2 3e d1 db 43 3d 81 c0 89 be
       0.26751906 0.3806947 0.047817055 -0.2690468
000050 67 4d f7 3e 9d 1d 26 3e fa 43 f3 be 06 e4 b3 3d
       0.4830124 0.16222234 -0.475128 0.087837264
000060 cc 8e 7c 3e 36 cf 81 3e 24 34 9f be 16 51 31 be
       0.24663848 0.25353402 -0.31094468 -0.17316088
000070 24 54 db 3e 1b 87 8c 3e 77 f0 f7 3e fb 7b 64 be
       0.42837632 0.27446827 0.48425648 -0.2231292
000080 6a 00 84 3e cc f6 e7 be 50 48 2d be 18 9a bd 3d
       0.25781566 -0.4530548 -0.16922116 0.09257907
000090 0c 7f 31 be 62 d4 cd be d0 d7 65 be 0a 5b a7 be
       -0.17333621 -0.40201098 -0.22445607 -0.32686645

in_layer.bias f4 [10]
000000 03 22 80 3c 00 88 16 ba 60 d3 55 3e 45 5f 42 be
       0.015641218 -0.00057423115 0.20881414 -0.18981655
000010 cb b2 d2 bd 19 07 73 bd 21 ef 58 bd 96 b9 f3 3e
       -0.10288008 -0.05933294 -0.052962426 0.47602528
000020 00 4b a5 3c e8 bb 0e be
       0.020177364 -0.13938868

hd_layer.weight f4 [5, 10]
000000 4d 3d 40 3e f6 69 74 be f7 2c 75 be 5a 94 c4 3d
       0.18773384 -0.23868546 -0.23942934 0.09598608
000010 05 99 f1 3d 3f 27 34 3c 2b d6 46 be ae f9 09 3d
       0.11796764 0.010995685 -0.19417636 0.03368538
000020 26 b6 5a 3e 00 3e a4 3b e6 45 f5 bd c0 fc 0b 3e
       0.21358547 0.005012274 -0.11976223 0.13670635
000030 20 28 38 3e f2 d6 d4 ba 28 fd 9c 3e f2 ee 8e 3c
       0.17984056 -0.0016238375 0.30661893 0.017447922
000040 c2 52 06 be 3f 95 a4 3d 4f 12 54 be b7 20 1a be
       -0.13117507 0.08036279 -0.20710109 -0.15051542
000050 3e e0 d4 bd 4f 24 2b be 60 33 48 3c e4 12 d0 bd
       -0.10394333 -0.1671307 0.01221928 -0.10159853
000060 80 b9 0b bd 22 c7 e6 bd c0 e9 21 bd a7 7c 9b be
       -0.034112453 -0.1126845 -0.039529562 -0.3036854
000070 10 bd b0 bc 70 f8 bc bc 88 8b 81 3c 68 4f f7 bd
       -0.021574527 -0.023067683 0.015813604 -0.120756924
000080 0f 3d 05 be b3 c4 8e 3e 32 df ee 3d d5 d2 92 be
       -0.13011573 0.27884445 0.11663665 -0.28676477
000090 c2 85 ed bd 45 40 4f 3d 63 61 07 be 36 f9 0b be
       -0.11597778 0.0505984 -0.13220744 -0.13669285
0000a0 f3 4c 88 3e b8 3c 40 3d e4 cc 55 be 00 c0 af bd
       0.26621208 0.046932906 -0.20878941 -0.08581543
0000b0 94 f6 83 be 94 74 06 3e 50 24 74 be 5d 83 80 be
       -0.25774062 0.13130409 -0.23841977 -0.25100222
0000c0 5a 6f 8a bd d2 04 4e be
       -0.0675952 -0.20119026

hd_layer.bias f4 [5]
000000 3e e7 9f 3e e3 e8 27 be a8 78 65 bd fd 57 e1 3d
       0.3123111 -0.16397433 -0.05602327 0.110031106
000010 de e5 78 be
       -0.24306437

out_layer.weight f4 [1, 5]
000000 e9 39 a8 be 96 34 ea bd c8 ad ac 3e 81 94 a7 3e
       -0.32856682 -0.11435811 0.33726335 0.32730487
000010 98 70 23 3e
       0.1596092
